node {
  name: "global_step/Initializer/zeros"
  op: "Const"
  attr {
    key: "_class"
    value {
      list {
        s: "loc:@global_step"
      }
    }
  }
  attr {
    key: "_output_shapes"
    value {
      list {
        shape {
        }
      }
    }
  }
  attr {
    key: "dtype"
    value {
      type: DT_INT64
    }
  }
  attr {
    key: "value"
    value {
      tensor {
        dtype: DT_INT64
        tensor_shape {
        }
        int64_val: 0
      }
    }
  }
}
node {
  name: "global_step"
  op: "VariableV2"
  attr {
    key: "_class"
    value {
      list {
        s: "loc:@global_step"
      }
    }
  }
  attr {
    key: "_output_shapes"
    value {
      list {
        shape {
        }
      }
    }
  }
  attr {
    key: "container"
    value {
      s: ""
    }
  }
  attr {
    key: "dtype"
    value {
      type: DT_INT64
    }
  }
  attr {
    key: "shape"
    value {
      shape {
      }
    }
  }
  attr {
    key: "shared_name"
    value {
      s: ""
    }
  }
}
node {
  name: "global_step/Assign"
  op: "Assign"
  input: "global_step"
  input: "global_step/Initializer/zeros"
  attr {
    key: "T"
    value {
      type: DT_INT64
    }
  }
  attr {
    key: "_class"
    value {
      list {
        s: "loc:@global_step"
      }
    }
  }
  attr {
    key: "_output_shapes"
    value {
      list {
        shape {
        }
      }
    }
  }
  attr {
    key: "use_locking"
    value {
      b: true
    }
  }
  attr {
    key: "validate_shape"
    value {
      b: true
    }
  }
}
node {
  name: "global_step/read"
  op: "Identity"
  input: "global_step"
  attr {
    key: "T"
    value {
      type: DT_INT64
    }
  }
  attr {
    key: "_class"
    value {
      list {
        s: "loc:@global_step"
      }
    }
  }
  attr {
    key: "_output_shapes"
    value {
      list {
        shape {
        }
      }
    }
  }
}
node {
  name: "input_producer/Const"
  op: "Const"
  attr {
    key: "_output_shapes"
    value {
      list {
        shape {
          dim {
            size: 1
          }
        }
      }
    }
  }
  attr {
    key: "dtype"
    value {
      type: DT_STRING
    }
  }
  attr {
    key: "value"
    value {
      tensor {
        dtype: DT_STRING
        tensor_shape {
          dim {
            size: 1
          }
        }
        string_val: "../data/train-data.csv"
      }
    }
  }
}
node {
  name: "input_producer/Size"
  op: "Const"
  attr {
    key: "_output_shapes"
    value {
      list {
        shape {
        }
      }
    }
  }
  attr {
    key: "dtype"
    value {
      type: DT_INT32
    }
  }
  attr {
    key: "value"
    value {
      tensor {
        dtype: DT_INT32
        tensor_shape {
        }
        int_val: 1
      }
    }
  }
}
node {
  name: "input_producer/Greater/y"
  op: "Const"
  attr {
    key: "_output_shapes"
    value {
      list {
        shape {
        }
      }
    }
  }
  attr {
    key: "dtype"
    value {
      type: DT_INT32
    }
  }
  attr {
    key: "value"
    value {
      tensor {
        dtype: DT_INT32
        tensor_shape {
        }
        int_val: 0
      }
    }
  }
}
node {
  name: "input_producer/Greater"
  op: "Greater"
  input: "input_producer/Size"
  input: "input_producer/Greater/y"
  attr {
    key: "T"
    value {
      type: DT_INT32
    }
  }
  attr {
    key: "_output_shapes"
    value {
      list {
        shape {
        }
      }
    }
  }
}
node {
  name: "input_producer/Assert/Const"
  op: "Const"
  attr {
    key: "_output_shapes"
    value {
      list {
        shape {
        }
      }
    }
  }
  attr {
    key: "dtype"
    value {
      type: DT_STRING
    }
  }
  attr {
    key: "value"
    value {
      tensor {
        dtype: DT_STRING
        tensor_shape {
        }
        string_val: "string_input_producer requires a non-null input tensor"
      }
    }
  }
}
node {
  name: "input_producer/Assert/Assert/data_0"
  op: "Const"
  attr {
    key: "_output_shapes"
    value {
      list {
        shape {
        }
      }
    }
  }
  attr {
    key: "dtype"
    value {
      type: DT_STRING
    }
  }
  attr {
    key: "value"
    value {
      tensor {
        dtype: DT_STRING
        tensor_shape {
        }
        string_val: "string_input_producer requires a non-null input tensor"
      }
    }
  }
}
node {
  name: "input_producer/Assert/Assert"
  op: "Assert"
  input: "input_producer/Greater"
  input: "input_producer/Assert/Assert/data_0"
  attr {
    key: "T"
    value {
      list {
        type: DT_STRING
      }
    }
  }
  attr {
    key: "summarize"
    value {
      i: 3
    }
  }
}
node {
  name: "input_producer/Identity"
  op: "Identity"
  input: "input_producer/Const"
  input: "^input_producer/Assert/Assert"
  attr {
    key: "T"
    value {
      type: DT_STRING
    }
  }
  attr {
    key: "_output_shapes"
    value {
      list {
        shape {
          dim {
            size: 1
          }
        }
      }
    }
  }
}
node {
  name: "input_producer/RandomShuffle"
  op: "RandomShuffle"
  input: "input_producer/Identity"
  attr {
    key: "T"
    value {
      type: DT_STRING
    }
  }
  attr {
    key: "_output_shapes"
    value {
      list {
        shape {
          dim {
            size: 1
          }
        }
      }
    }
  }
  attr {
    key: "seed"
    value {
      i: 0
    }
  }
  attr {
    key: "seed2"
    value {
      i: 0
    }
  }
}
node {
  name: "input_producer/limit_epochs/Const"
  op: "Const"
  attr {
    key: "_output_shapes"
    value {
      list {
        shape {
        }
      }
    }
  }
  attr {
    key: "dtype"
    value {
      type: DT_INT64
    }
  }
  attr {
    key: "value"
    value {
      tensor {
        dtype: DT_INT64
        tensor_shape {
        }
        int64_val: 0
      }
    }
  }
}
node {
  name: "input_producer/limit_epochs/epochs"
  op: "VariableV2"
  attr {
    key: "_output_shapes"
    value {
      list {
        shape {
        }
      }
    }
  }
  attr {
    key: "container"
    value {
      s: ""
    }
  }
  attr {
    key: "dtype"
    value {
      type: DT_INT64
    }
  }
  attr {
    key: "shape"
    value {
      shape {
      }
    }
  }
  attr {
    key: "shared_name"
    value {
      s: ""
    }
  }
}
node {
  name: "input_producer/limit_epochs/epochs/Assign"
  op: "Assign"
  input: "input_producer/limit_epochs/epochs"
  input: "input_producer/limit_epochs/Const"
  attr {
    key: "T"
    value {
      type: DT_INT64
    }
  }
  attr {
    key: "_class"
    value {
      list {
        s: "loc:@input_producer/limit_epochs/epochs"
      }
    }
  }
  attr {
    key: "_output_shapes"
    value {
      list {
        shape {
        }
      }
    }
  }
  attr {
    key: "use_locking"
    value {
      b: true
    }
  }
  attr {
    key: "validate_shape"
    value {
      b: true
    }
  }
}
node {
  name: "input_producer/limit_epochs/epochs/read"
  op: "Identity"
  input: "input_producer/limit_epochs/epochs"
  attr {
    key: "T"
    value {
      type: DT_INT64
    }
  }
  attr {
    key: "_class"
    value {
      list {
        s: "loc:@input_producer/limit_epochs/epochs"
      }
    }
  }
  attr {
    key: "_output_shapes"
    value {
      list {
        shape {
        }
      }
    }
  }
}
node {
  name: "input_producer/limit_epochs/CountUpTo"
  op: "CountUpTo"
  input: "input_producer/limit_epochs/epochs"
  attr {
    key: "T"
    value {
      type: DT_INT64
    }
  }
  attr {
    key: "_class"
    value {
      list {
        s: "loc:@input_producer/limit_epochs/epochs"
      }
    }
  }
  attr {
    key: "_output_shapes"
    value {
      list {
        shape {
        }
      }
    }
  }
  attr {
    key: "limit"
    value {
      i: 10
    }
  }
}
node {
  name: "input_producer/limit_epochs"
  op: "Identity"
  input: "input_producer/RandomShuffle"
  input: "^input_producer/limit_epochs/CountUpTo"
  attr {
    key: "T"
    value {
      type: DT_STRING
    }
  }
  attr {
    key: "_output_shapes"
    value {
      list {
        shape {
          dim {
            size: 1
          }
        }
      }
    }
  }
}
node {
  name: "input_producer"
  op: "FIFOQueueV2"
  attr {
    key: "_output_shapes"
    value {
      list {
        shape {
        }
      }
    }
  }
  attr {
    key: "capacity"
    value {
      i: 32
    }
  }
  attr {
    key: "component_types"
    value {
      list {
        type: DT_STRING
      }
    }
  }
  attr {
    key: "container"
    value {
      s: ""
    }
  }
  attr {
    key: "shapes"
    value {
      list {
        shape {
        }
      }
    }
  }
  attr {
    key: "shared_name"
    value {
      s: ""
    }
  }
}
node {
  name: "input_producer/input_producer_EnqueueMany"
  op: "QueueEnqueueManyV2"
  input: "input_producer"
  input: "input_producer/limit_epochs"
  attr {
    key: "Tcomponents"
    value {
      list {
        type: DT_STRING
      }
    }
  }
  attr {
    key: "timeout_ms"
    value {
      i: -1
    }
  }
}
node {
  name: "input_producer/input_producer_Close"
  op: "QueueCloseV2"
  input: "input_producer"
  attr {
    key: "cancel_pending_enqueues"
    value {
      b: false
    }
  }
}
node {
  name: "input_producer/input_producer_Close_1"
  op: "QueueCloseV2"
  input: "input_producer"
  attr {
    key: "cancel_pending_enqueues"
    value {
      b: true
    }
  }
}
node {
  name: "input_producer/input_producer_Size"
  op: "QueueSizeV2"
  input: "input_producer"
  attr {
    key: "_output_shapes"
    value {
      list {
        shape {
        }
      }
    }
  }
}
node {
  name: "input_producer/Cast"
  op: "Cast"
  input: "input_producer/input_producer_Size"
  attr {
    key: "DstT"
    value {
      type: DT_FLOAT
    }
  }
  attr {
    key: "SrcT"
    value {
      type: DT_INT32
    }
  }
  attr {
    key: "_output_shapes"
    value {
      list {
        shape {
        }
      }
    }
  }
}
node {
  name: "input_producer/mul/y"
  op: "Const"
  attr {
    key: "_output_shapes"
    value {
      list {
        shape {
        }
      }
    }
  }
  attr {
    key: "dtype"
    value {
      type: DT_FLOAT
    }
  }
  attr {
    key: "value"
    value {
      tensor {
        dtype: DT_FLOAT
        tensor_shape {
        }
        float_val: 0.03125
      }
    }
  }
}
node {
  name: "input_producer/mul"
  op: "Mul"
  input: "input_producer/Cast"
  input: "input_producer/mul/y"
  attr {
    key: "T"
    value {
      type: DT_FLOAT
    }
  }
  attr {
    key: "_output_shapes"
    value {
      list {
        shape {
        }
      }
    }
  }
}
node {
  name: "input_producer/fraction_of_32_full/tags"
  op: "Const"
  attr {
    key: "_output_shapes"
    value {
      list {
        shape {
        }
      }
    }
  }
  attr {
    key: "dtype"
    value {
      type: DT_STRING
    }
  }
  attr {
    key: "value"
    value {
      tensor {
        dtype: DT_STRING
        tensor_shape {
        }
        string_val: "input_producer/fraction_of_32_full"
      }
    }
  }
}
node {
  name: "input_producer/fraction_of_32_full"
  op: "ScalarSummary"
  input: "input_producer/fraction_of_32_full/tags"
  input: "input_producer/mul"
  attr {
    key: "T"
    value {
      type: DT_FLOAT
    }
  }
  attr {
    key: "_output_shapes"
    value {
      list {
        shape {
        }
      }
    }
  }
}
node {
  name: "TextLineReaderV2"
  op: "TextLineReaderV2"
  attr {
    key: "_output_shapes"
    value {
      list {
        shape {
        }
      }
    }
  }
  attr {
    key: "container"
    value {
      s: ""
    }
  }
  attr {
    key: "shared_name"
    value {
      s: ""
    }
  }
  attr {
    key: "skip_header_lines"
    value {
      i: 0
    }
  }
}
node {
  name: "ReaderReadUpToV2/num_records"
  op: "Const"
  attr {
    key: "_output_shapes"
    value {
      list {
        shape {
        }
      }
    }
  }
  attr {
    key: "dtype"
    value {
      type: DT_INT64
    }
  }
  attr {
    key: "value"
    value {
      tensor {
        dtype: DT_INT64
        tensor_shape {
        }
        int64_val: 500
      }
    }
  }
}
node {
  name: "ReaderReadUpToV2"
  op: "ReaderReadUpToV2"
  input: "TextLineReaderV2"
  input: "input_producer"
  input: "ReaderReadUpToV2/num_records"
  attr {
    key: "_output_shapes"
    value {
      list {
        shape {
          dim {
            size: -1
          }
        }
        shape {
          dim {
            size: -1
          }
        }
      }
    }
  }
}
node {
  name: "ExpandDims/dim"
  op: "Const"
  attr {
    key: "_output_shapes"
    value {
      list {
        shape {
        }
      }
    }
  }
  attr {
    key: "dtype"
    value {
      type: DT_INT32
    }
  }
  attr {
    key: "value"
    value {
      tensor {
        dtype: DT_INT32
        tensor_shape {
        }
        int_val: -1
      }
    }
  }
}
node {
  name: "ExpandDims"
  op: "ExpandDims"
  input: "ReaderReadUpToV2:1"
  input: "ExpandDims/dim"
  attr {
    key: "T"
    value {
      type: DT_STRING
    }
  }
  attr {
    key: "Tdim"
    value {
      type: DT_INT32
    }
  }
  attr {
    key: "_output_shapes"
    value {
      list {
        shape {
          dim {
            size: -1
          }
          dim {
            size: 1
          }
        }
      }
    }
  }
}
node {
  name: "DecodeCSV/record_defaults_0"
  op: "Const"
  attr {
    key: "_output_shapes"
    value {
      list {
        shape {
          dim {
            size: 1
          }
        }
      }
    }
  }
  attr {
    key: "dtype"
    value {
      type: DT_FLOAT
    }
  }
  attr {
    key: "value"
    value {
      tensor {
        dtype: DT_FLOAT
        tensor_shape {
          dim {
            size: 1
          }
        }
        float_val: 0.0
      }
    }
  }
}
node {
  name: "DecodeCSV/record_defaults_1"
  op: "Const"
  attr {
    key: "_output_shapes"
    value {
      list {
        shape {
          dim {
            size: 1
          }
        }
      }
    }
  }
  attr {
    key: "dtype"
    value {
      type: DT_FLOAT
    }
  }
  attr {
    key: "value"
    value {
      tensor {
        dtype: DT_FLOAT
        tensor_shape {
          dim {
            size: 1
          }
        }
        float_val: 0.0
      }
    }
  }
}
node {
  name: "DecodeCSV/record_defaults_2"
  op: "Const"
  attr {
    key: "_output_shapes"
    value {
      list {
        shape {
          dim {
            size: 1
          }
        }
      }
    }
  }
  attr {
    key: "dtype"
    value {
      type: DT_FLOAT
    }
  }
  attr {
    key: "value"
    value {
      tensor {
        dtype: DT_FLOAT
        tensor_shape {
          dim {
            size: 1
          }
        }
        float_val: 0.0
      }
    }
  }
}
node {
  name: "DecodeCSV/record_defaults_3"
  op: "Const"
  attr {
    key: "_output_shapes"
    value {
      list {
        shape {
          dim {
            size: 1
          }
        }
      }
    }
  }
  attr {
    key: "dtype"
    value {
      type: DT_STRING
    }
  }
  attr {
    key: "value"
    value {
      tensor {
        dtype: DT_STRING
        tensor_shape {
          dim {
            size: 1
          }
        }
        string_val: ""
      }
    }
  }
}
node {
  name: "DecodeCSV/record_defaults_4"
  op: "Const"
  attr {
    key: "_output_shapes"
    value {
      list {
        shape {
          dim {
            size: 1
          }
        }
      }
    }
  }
  attr {
    key: "dtype"
    value {
      type: DT_STRING
    }
  }
  attr {
    key: "value"
    value {
      tensor {
        dtype: DT_STRING
        tensor_shape {
          dim {
            size: 1
          }
        }
        string_val: ""
      }
    }
  }
}
node {
  name: "DecodeCSV/record_defaults_5"
  op: "Const"
  attr {
    key: "_output_shapes"
    value {
      list {
        shape {
          dim {
            size: 1
          }
        }
      }
    }
  }
  attr {
    key: "dtype"
    value {
      type: DT_FLOAT
    }
  }
  attr {
    key: "value"
    value {
      tensor {
        dtype: DT_FLOAT
        tensor_shape {
          dim {
            size: 1
          }
        }
        float_val: 0.0
      }
    }
  }
}
node {
  name: "DecodeCSV"
  op: "DecodeCSV"
  input: "ExpandDims"
  input: "DecodeCSV/record_defaults_0"
  input: "DecodeCSV/record_defaults_1"
  input: "DecodeCSV/record_defaults_2"
  input: "DecodeCSV/record_defaults_3"
  input: "DecodeCSV/record_defaults_4"
  input: "DecodeCSV/record_defaults_5"
  attr {
    key: "OUT_TYPE"
    value {
      list {
        type: DT_FLOAT
        type: DT_FLOAT
        type: DT_FLOAT
        type: DT_STRING
        type: DT_STRING
        type: DT_FLOAT
      }
    }
  }
  attr {
    key: "_output_shapes"
    value {
      list {
        shape {
          dim {
            size: -1
          }
          dim {
            size: 1
          }
        }
        shape {
          dim {
            size: -1
          }
          dim {
            size: 1
          }
        }
        shape {
          dim {
            size: -1
          }
          dim {
            size: 1
          }
        }
        shape {
          dim {
            size: -1
          }
          dim {
            size: 1
          }
        }
        shape {
          dim {
            size: -1
          }
          dim {
            size: 1
          }
        }
        shape {
          dim {
            size: -1
          }
          dim {
            size: 1
          }
        }
      }
    }
  }
  attr {
    key: "field_delim"
    value {
      s: ","
    }
  }
}
node {
  name: "shuffle_batch/Const"
  op: "Const"
  attr {
    key: "_output_shapes"
    value {
      list {
        shape {
        }
      }
    }
  }
  attr {
    key: "dtype"
    value {
      type: DT_BOOL
    }
  }
  attr {
    key: "value"
    value {
      tensor {
        dtype: DT_BOOL
        tensor_shape {
        }
        bool_val: true
      }
    }
  }
}
node {
  name: "shuffle_batch/random_shuffle_queue"
  op: "RandomShuffleQueueV2"
  attr {
    key: "_output_shapes"
    value {
      list {
        shape {
        }
      }
    }
  }
  attr {
    key: "capacity"
    value {
      i: 5000
    }
  }
  attr {
    key: "component_types"
    value {
      list {
        type: DT_STRING
        type: DT_STRING
        type: DT_FLOAT
        type: DT_FLOAT
        type: DT_FLOAT
      }
    }
  }
  attr {
    key: "container"
    value {
      s: ""
    }
  }
  attr {
    key: "min_after_dequeue"
    value {
      i: 1001
    }
  }
  attr {
    key: "seed"
    value {
      i: 0
    }
  }
  attr {
    key: "seed2"
    value {
      i: 0
    }
  }
  attr {
    key: "shapes"
    value {
      list {
        shape {
          dim {
            size: 1
          }
        }
        shape {
          dim {
            size: 1
          }
        }
        shape {
          dim {
            size: 1
          }
        }
        shape {
          dim {
            size: 1
          }
        }
        shape {
          dim {
            size: 1
          }
        }
      }
    }
  }
  attr {
    key: "shared_name"
    value {
      s: ""
    }
  }
}
node {
  name: "shuffle_batch/random_shuffle_queue_EnqueueMany"
  op: "QueueEnqueueManyV2"
  input: "shuffle_batch/random_shuffle_queue"
  input: "DecodeCSV:3"
  input: "DecodeCSV:4"
  input: "DecodeCSV:5"
  input: "DecodeCSV:1"
  input: "DecodeCSV:2"
  attr {
    key: "Tcomponents"
    value {
      list {
        type: DT_STRING
        type: DT_STRING
        type: DT_FLOAT
        type: DT_FLOAT
        type: DT_FLOAT
      }
    }
  }
  attr {
    key: "timeout_ms"
    value {
      i: -1
    }
  }
}
node {
  name: "shuffle_batch/random_shuffle_queue_Close"
  op: "QueueCloseV2"
  input: "shuffle_batch/random_shuffle_queue"
  attr {
    key: "cancel_pending_enqueues"
    value {
      b: false
    }
  }
}
node {
  name: "shuffle_batch/random_shuffle_queue_Close_1"
  op: "QueueCloseV2"
  input: "shuffle_batch/random_shuffle_queue"
  attr {
    key: "cancel_pending_enqueues"
    value {
      b: true
    }
  }
}
node {
  name: "shuffle_batch/random_shuffle_queue_Size"
  op: "QueueSizeV2"
  input: "shuffle_batch/random_shuffle_queue"
  attr {
    key: "_output_shapes"
    value {
      list {
        shape {
        }
      }
    }
  }
}
node {
  name: "shuffle_batch/sub/y"
  op: "Const"
  attr {
    key: "_output_shapes"
    value {
      list {
        shape {
        }
      }
    }
  }
  attr {
    key: "dtype"
    value {
      type: DT_INT32
    }
  }
  attr {
    key: "value"
    value {
      tensor {
        dtype: DT_INT32
        tensor_shape {
        }
        int_val: 1001
      }
    }
  }
}
node {
  name: "shuffle_batch/sub"
  op: "Sub"
  input: "shuffle_batch/random_shuffle_queue_Size"
  input: "shuffle_batch/sub/y"
  attr {
    key: "T"
    value {
      type: DT_INT32
    }
  }
  attr {
    key: "_output_shapes"
    value {
      list {
        shape {
        }
      }
    }
  }
}
node {
  name: "shuffle_batch/Maximum/x"
  op: "Const"
  attr {
    key: "_output_shapes"
    value {
      list {
        shape {
        }
      }
    }
  }
  attr {
    key: "dtype"
    value {
      type: DT_INT32
    }
  }
  attr {
    key: "value"
    value {
      tensor {
        dtype: DT_INT32
        tensor_shape {
        }
        int_val: 0
      }
    }
  }
}
node {
  name: "shuffle_batch/Maximum"
  op: "Maximum"
  input: "shuffle_batch/Maximum/x"
  input: "shuffle_batch/sub"
  attr {
    key: "T"
    value {
      type: DT_INT32
    }
  }
  attr {
    key: "_output_shapes"
    value {
      list {
        shape {
        }
      }
    }
  }
}
node {
  name: "shuffle_batch/Cast"
  op: "Cast"
  input: "shuffle_batch/Maximum"
  attr {
    key: "DstT"
    value {
      type: DT_FLOAT
    }
  }
  attr {
    key: "SrcT"
    value {
      type: DT_INT32
    }
  }
  attr {
    key: "_output_shapes"
    value {
      list {
        shape {
        }
      }
    }
  }
}
node {
  name: "shuffle_batch/mul/y"
  op: "Const"
  attr {
    key: "_output_shapes"
    value {
      list {
        shape {
        }
      }
    }
  }
  attr {
    key: "dtype"
    value {
      type: DT_FLOAT
    }
  }
  attr {
    key: "value"
    value {
      tensor {
        dtype: DT_FLOAT
        tensor_shape {
        }
        float_val: 0.000250062526902
      }
    }
  }
}
node {
  name: "shuffle_batch/mul"
  op: "Mul"
  input: "shuffle_batch/Cast"
  input: "shuffle_batch/mul/y"
  attr {
    key: "T"
    value {
      type: DT_FLOAT
    }
  }
  attr {
    key: "_output_shapes"
    value {
      list {
        shape {
        }
      }
    }
  }
}
node {
  name: "shuffle_batch/fraction_over_1001_of_3999_full/tags"
  op: "Const"
  attr {
    key: "_output_shapes"
    value {
      list {
        shape {
        }
      }
    }
  }
  attr {
    key: "dtype"
    value {
      type: DT_STRING
    }
  }
  attr {
    key: "value"
    value {
      tensor {
        dtype: DT_STRING
        tensor_shape {
        }
        string_val: "shuffle_batch/fraction_over_1001_of_3999_full"
      }
    }
  }
}
node {
  name: "shuffle_batch/fraction_over_1001_of_3999_full"
  op: "ScalarSummary"
  input: "shuffle_batch/fraction_over_1001_of_3999_full/tags"
  input: "shuffle_batch/mul"
  attr {
    key: "T"
    value {
      type: DT_FLOAT
    }
  }
  attr {
    key: "_output_shapes"
    value {
      list {
        shape {
        }
      }
    }
  }
}
node {
  name: "shuffle_batch/n"
  op: "Const"
  attr {
    key: "_output_shapes"
    value {
      list {
        shape {
        }
      }
    }
  }
  attr {
    key: "dtype"
    value {
      type: DT_INT32
    }
  }
  attr {
    key: "value"
    value {
      tensor {
        dtype: DT_INT32
        tensor_shape {
        }
        int_val: 500
      }
    }
  }
}
node {
  name: "shuffle_batch"
  op: "QueueDequeueUpToV2"
  input: "shuffle_batch/random_shuffle_queue"
  input: "shuffle_batch/n"
  attr {
    key: "_output_shapes"
    value {
      list {
        shape {
          dim {
            size: -1
          }
          dim {
            size: 1
          }
        }
        shape {
          dim {
            size: -1
          }
          dim {
            size: 1
          }
        }
        shape {
          dim {
            size: -1
          }
          dim {
            size: 1
          }
        }
        shape {
          dim {
            size: -1
          }
          dim {
            size: 1
          }
        }
        shape {
          dim {
            size: -1
          }
          dim {
            size: 1
          }
        }
      }
    }
  }
  attr {
    key: "component_types"
    value {
      list {
        type: DT_STRING
        type: DT_STRING
        type: DT_FLOAT
        type: DT_FLOAT
        type: DT_FLOAT
      }
    }
  }
  attr {
    key: "timeout_ms"
    value {
      i: -1
    }
  }
}
node {
  name: "dnn/input_from_feature_columns/input_layer/alpha_indicator/to_sparse_input/Shape"
  op: "Shape"
  input: "shuffle_batch"
  attr {
    key: "T"
    value {
      type: DT_STRING
    }
  }
  attr {
    key: "_output_shapes"
    value {
      list {
        shape {
          dim {
            size: 2
          }
        }
      }
    }
  }
  attr {
    key: "out_type"
    value {
      type: DT_INT32
    }
  }
}
node {
  name: "dnn/input_from_feature_columns/input_layer/alpha_indicator/to_sparse_input/Cast"
  op: "Cast"
  input: "dnn/input_from_feature_columns/input_layer/alpha_indicator/to_sparse_input/Shape"
  attr {
    key: "DstT"
    value {
      type: DT_INT64
    }
  }
  attr {
    key: "SrcT"
    value {
      type: DT_INT32
    }
  }
  attr {
    key: "_output_shapes"
    value {
      list {
        shape {
          dim {
            size: 2
          }
        }
      }
    }
  }
}
node {
  name: "dnn/input_from_feature_columns/input_layer/alpha_indicator/to_sparse_input/Cast_1/x"
  op: "Const"
  attr {
    key: "_output_shapes"
    value {
      list {
        shape {
        }
      }
    }
  }
  attr {
    key: "dtype"
    value {
      type: DT_STRING
    }
  }
  attr {
    key: "value"
    value {
      tensor {
        dtype: DT_STRING
        tensor_shape {
        }
        string_val: ""
      }
    }
  }
}
node {
  name: "dnn/input_from_feature_columns/input_layer/alpha_indicator/to_sparse_input/NotEqual"
  op: "NotEqual"
  input: "shuffle_batch"
  input: "dnn/input_from_feature_columns/input_layer/alpha_indicator/to_sparse_input/Cast_1/x"
  attr {
    key: "T"
    value {
      type: DT_STRING
    }
  }
  attr {
    key: "_output_shapes"
    value {
      list {
        shape {
          dim {
            size: -1
          }
          dim {
            size: 1
          }
        }
      }
    }
  }
}
node {
  name: "dnn/input_from_feature_columns/input_layer/alpha_indicator/to_sparse_input/Where"
  op: "Where"
  input: "dnn/input_from_feature_columns/input_layer/alpha_indicator/to_sparse_input/NotEqual"
  attr {
    key: "_output_shapes"
    value {
      list {
        shape {
          dim {
            size: -1
          }
          dim {
            size: 2
          }
        }
      }
    }
  }
}
node {
  name: "dnn/input_from_feature_columns/input_layer/alpha_indicator/to_sparse_input/Reshape/shape"
  op: "Const"
  attr {
    key: "_output_shapes"
    value {
      list {
        shape {
          dim {
            size: 1
          }
        }
      }
    }
  }
  attr {
    key: "dtype"
    value {
      type: DT_INT32
    }
  }
  attr {
    key: "value"
    value {
      tensor {
        dtype: DT_INT32
        tensor_shape {
          dim {
            size: 1
          }
        }
        int_val: -1
      }
    }
  }
}
node {
  name: "dnn/input_from_feature_columns/input_layer/alpha_indicator/to_sparse_input/Reshape"
  op: "Reshape"
  input: "shuffle_batch"
  input: "dnn/input_from_feature_columns/input_layer/alpha_indicator/to_sparse_input/Reshape/shape"
  attr {
    key: "T"
    value {
      type: DT_STRING
    }
  }
  attr {
    key: "Tshape"
    value {
      type: DT_INT32
    }
  }
  attr {
    key: "_output_shapes"
    value {
      list {
        shape {
          dim {
            size: -1
          }
        }
      }
    }
  }
}
node {
  name: "dnn/input_from_feature_columns/input_layer/alpha_indicator/to_sparse_input/strided_slice/stack"
  op: "Const"
  attr {
    key: "_output_shapes"
    value {
      list {
        shape {
          dim {
            size: 2
          }
        }
      }
    }
  }
  attr {
    key: "dtype"
    value {
      type: DT_INT32
    }
  }
  attr {
    key: "value"
    value {
      tensor {
        dtype: DT_INT32
        tensor_shape {
          dim {
            size: 2
          }
        }
        tensor_content: "\000\000\000\000\001\000\000\000"
      }
    }
  }
}
node {
  name: "dnn/input_from_feature_columns/input_layer/alpha_indicator/to_sparse_input/strided_slice/stack_1"
  op: "Const"
  attr {
    key: "_output_shapes"
    value {
      list {
        shape {
          dim {
            size: 2
          }
        }
      }
    }
  }
  attr {
    key: "dtype"
    value {
      type: DT_INT32
    }
  }
  attr {
    key: "value"
    value {
      tensor {
        dtype: DT_INT32
        tensor_shape {
          dim {
            size: 2
          }
        }
        tensor_content: "\000\000\000\000\002\000\000\000"
      }
    }
  }
}
node {
  name: "dnn/input_from_feature_columns/input_layer/alpha_indicator/to_sparse_input/strided_slice/stack_2"
  op: "Const"
  attr {
    key: "_output_shapes"
    value {
      list {
        shape {
          dim {
            size: 2
          }
        }
      }
    }
  }
  attr {
    key: "dtype"
    value {
      type: DT_INT32
    }
  }
  attr {
    key: "value"
    value {
      tensor {
        dtype: DT_INT32
        tensor_shape {
          dim {
            size: 2
          }
        }
        tensor_content: "\001\000\000\000\001\000\000\000"
      }
    }
  }
}
node {
  name: "dnn/input_from_feature_columns/input_layer/alpha_indicator/to_sparse_input/strided_slice"
  op: "StridedSlice"
  input: "dnn/input_from_feature_columns/input_layer/alpha_indicator/to_sparse_input/Where"
  input: "dnn/input_from_feature_columns/input_layer/alpha_indicator/to_sparse_input/strided_slice/stack"
  input: "dnn/input_from_feature_columns/input_layer/alpha_indicator/to_sparse_input/strided_slice/stack_1"
  input: "dnn/input_from_feature_columns/input_layer/alpha_indicator/to_sparse_input/strided_slice/stack_2"
  attr {
    key: "Index"
    value {
      type: DT_INT32
    }
  }
  attr {
    key: "T"
    value {
      type: DT_INT64
    }
  }
  attr {
    key: "_output_shapes"
    value {
      list {
        shape {
          dim {
            size: -1
          }
        }
      }
    }
  }
  attr {
    key: "begin_mask"
    value {
      i: 1
    }
  }
  attr {
    key: "ellipsis_mask"
    value {
      i: 0
    }
  }
  attr {
    key: "end_mask"
    value {
      i: 1
    }
  }
  attr {
    key: "new_axis_mask"
    value {
      i: 0
    }
  }
  attr {
    key: "shrink_axis_mask"
    value {
      i: 2
    }
  }
}
node {
  name: "dnn/input_from_feature_columns/input_layer/alpha_indicator/to_sparse_input/strided_slice_1/stack"
  op: "Const"
  attr {
    key: "_output_shapes"
    value {
      list {
        shape {
          dim {
            size: 2
          }
        }
      }
    }
  }
  attr {
    key: "dtype"
    value {
      type: DT_INT32
    }
  }
  attr {
    key: "value"
    value {
      tensor {
        dtype: DT_INT32
        tensor_shape {
          dim {
            size: 2
          }
        }
        tensor_content: "\000\000\000\000\000\000\000\000"
      }
    }
  }
}
node {
  name: "dnn/input_from_feature_columns/input_layer/alpha_indicator/to_sparse_input/strided_slice_1/stack_1"
  op: "Const"
  attr {
    key: "_output_shapes"
    value {
      list {
        shape {
          dim {
            size: 2
          }
        }
      }
    }
  }
  attr {
    key: "dtype"
    value {
      type: DT_INT32
    }
  }
  attr {
    key: "value"
    value {
      tensor {
        dtype: DT_INT32
        tensor_shape {
          dim {
            size: 2
          }
        }
        tensor_content: "\000\000\000\000\001\000\000\000"
      }
    }
  }
}
node {
  name: "dnn/input_from_feature_columns/input_layer/alpha_indicator/to_sparse_input/strided_slice_1/stack_2"
  op: "Const"
  attr {
    key: "_output_shapes"
    value {
      list {
        shape {
          dim {
            size: 2
          }
        }
      }
    }
  }
  attr {
    key: "dtype"
    value {
      type: DT_INT32
    }
  }
  attr {
    key: "value"
    value {
      tensor {
        dtype: DT_INT32
        tensor_shape {
          dim {
            size: 2
          }
        }
        tensor_content: "\001\000\000\000\001\000\000\000"
      }
    }
  }
}
node {
  name: "dnn/input_from_feature_columns/input_layer/alpha_indicator/to_sparse_input/strided_slice_1"
  op: "StridedSlice"
  input: "dnn/input_from_feature_columns/input_layer/alpha_indicator/to_sparse_input/Where"
  input: "dnn/input_from_feature_columns/input_layer/alpha_indicator/to_sparse_input/strided_slice_1/stack"
  input: "dnn/input_from_feature_columns/input_layer/alpha_indicator/to_sparse_input/strided_slice_1/stack_1"
  input: "dnn/input_from_feature_columns/input_layer/alpha_indicator/to_sparse_input/strided_slice_1/stack_2"
  attr {
    key: "Index"
    value {
      type: DT_INT32
    }
  }
  attr {
    key: "T"
    value {
      type: DT_INT64
    }
  }
  attr {
    key: "_output_shapes"
    value {
      list {
        shape {
          dim {
            size: -1
          }
          dim {
            size: 1
          }
        }
      }
    }
  }
  attr {
    key: "begin_mask"
    value {
      i: 3
    }
  }
  attr {
    key: "ellipsis_mask"
    value {
      i: 0
    }
  }
  attr {
    key: "end_mask"
    value {
      i: 1
    }
  }
  attr {
    key: "new_axis_mask"
    value {
      i: 0
    }
  }
  attr {
    key: "shrink_axis_mask"
    value {
      i: 0
    }
  }
}
node {
  name: "dnn/input_from_feature_columns/input_layer/alpha_indicator/to_sparse_input/unstack"
  op: "Unpack"
  input: "dnn/input_from_feature_columns/input_layer/alpha_indicator/to_sparse_input/Cast"
  attr {
    key: "T"
    value {
      type: DT_INT64
    }
  }
  attr {
    key: "_output_shapes"
    value {
      list {
        shape {
        }
        shape {
        }
      }
    }
  }
  attr {
    key: "axis"
    value {
      i: 0
    }
  }
  attr {
    key: "num"
    value {
      i: 2
    }
  }
}
node {
  name: "dnn/input_from_feature_columns/input_layer/alpha_indicator/to_sparse_input/stack"
  op: "Pack"
  input: "dnn/input_from_feature_columns/input_layer/alpha_indicator/to_sparse_input/unstack:1"
  attr {
    key: "N"
    value {
      i: 1
    }
  }
  attr {
    key: "T"
    value {
      type: DT_INT64
    }
  }
  attr {
    key: "_output_shapes"
    value {
      list {
        shape {
          dim {
            size: 1
          }
        }
      }
    }
  }
  attr {
    key: "axis"
    value {
      i: 0
    }
  }
}
node {
  name: "dnn/input_from_feature_columns/input_layer/alpha_indicator/to_sparse_input/Mul"
  op: "Mul"
  input: "dnn/input_from_feature_columns/input_layer/alpha_indicator/to_sparse_input/strided_slice_1"
  input: "dnn/input_from_feature_columns/input_layer/alpha_indicator/to_sparse_input/stack"
  attr {
    key: "T"
    value {
      type: DT_INT64
    }
  }
  attr {
    key: "_output_shapes"
    value {
      list {
        shape {
          dim {
            size: -1
          }
          dim {
            size: 1
          }
        }
      }
    }
  }
}
node {
  name: "dnn/input_from_feature_columns/input_layer/alpha_indicator/to_sparse_input/Sum/reduction_indices"
  op: "Const"
  attr {
    key: "_output_shapes"
    value {
      list {
        shape {
          dim {
            size: 1
          }
        }
      }
    }
  }
  attr {
    key: "dtype"
    value {
      type: DT_INT32
    }
  }
  attr {
    key: "value"
    value {
      tensor {
        dtype: DT_INT32
        tensor_shape {
          dim {
            size: 1
          }
        }
        int_val: 1
      }
    }
  }
}
node {
  name: "dnn/input_from_feature_columns/input_layer/alpha_indicator/to_sparse_input/Sum"
  op: "Sum"
  input: "dnn/input_from_feature_columns/input_layer/alpha_indicator/to_sparse_input/Mul"
  input: "dnn/input_from_feature_columns/input_layer/alpha_indicator/to_sparse_input/Sum/reduction_indices"
  attr {
    key: "T"
    value {
      type: DT_INT64
    }
  }
  attr {
    key: "Tidx"
    value {
      type: DT_INT32
    }
  }
  attr {
    key: "_output_shapes"
    value {
      list {
        shape {
          dim {
            size: -1
          }
        }
      }
    }
  }
  attr {
    key: "keep_dims"
    value {
      b: false
    }
  }
}
node {
  name: "dnn/input_from_feature_columns/input_layer/alpha_indicator/to_sparse_input/Add"
  op: "Add"
  input: "dnn/input_from_feature_columns/input_layer/alpha_indicator/to_sparse_input/strided_slice"
  input: "dnn/input_from_feature_columns/input_layer/alpha_indicator/to_sparse_input/Sum"
  attr {
    key: "T"
    value {
      type: DT_INT64
    }
  }
  attr {
    key: "_output_shapes"
    value {
      list {
        shape {
          dim {
            size: -1
          }
        }
      }
    }
  }
}
node {
  name: "dnn/input_from_feature_columns/input_layer/alpha_indicator/to_sparse_input/Gather"
  op: "Gather"
  input: "dnn/input_from_feature_columns/input_layer/alpha_indicator/to_sparse_input/Reshape"
  input: "dnn/input_from_feature_columns/input_layer/alpha_indicator/to_sparse_input/Add"
  attr {
    key: "Tindices"
    value {
      type: DT_INT64
    }
  }
  attr {
    key: "Tparams"
    value {
      type: DT_STRING
    }
  }
  attr {
    key: "_output_shapes"
    value {
      list {
        shape {
          dim {
            size: -1
          }
        }
      }
    }
  }
  attr {
    key: "validate_indices"
    value {
      b: true
    }
  }
}
node {
  name: "dnn/input_from_feature_columns/input_layer/alpha_indicator/alpha_lookup/Const"
  op: "Const"
  attr {
    key: "_output_shapes"
    value {
      list {
        shape {
          dim {
            size: 2
          }
        }
      }
    }
  }
  attr {
    key: "dtype"
    value {
      type: DT_STRING
    }
  }
  attr {
    key: "value"
    value {
      tensor {
        dtype: DT_STRING
        tensor_shape {
          dim {
            size: 2
          }
        }
        string_val: "ax01"
        string_val: "ax02"
      }
    }
  }
}
node {
  name: "dnn/input_from_feature_columns/input_layer/alpha_indicator/alpha_lookup/Size"
  op: "Const"
  attr {
    key: "_output_shapes"
    value {
      list {
        shape {
        }
      }
    }
  }
  attr {
    key: "dtype"
    value {
      type: DT_INT32
    }
  }
  attr {
    key: "value"
    value {
      tensor {
        dtype: DT_INT32
        tensor_shape {
        }
        int_val: 2
      }
    }
  }
}
node {
  name: "dnn/input_from_feature_columns/input_layer/alpha_indicator/alpha_lookup/range/start"
  op: "Const"
  attr {
    key: "_output_shapes"
    value {
      list {
        shape {
        }
      }
    }
  }
  attr {
    key: "dtype"
    value {
      type: DT_INT32
    }
  }
  attr {
    key: "value"
    value {
      tensor {
        dtype: DT_INT32
        tensor_shape {
        }
        int_val: 0
      }
    }
  }
}
node {
  name: "dnn/input_from_feature_columns/input_layer/alpha_indicator/alpha_lookup/range/delta"
  op: "Const"
  attr {
    key: "_output_shapes"
    value {
      list {
        shape {
        }
      }
    }
  }
  attr {
    key: "dtype"
    value {
      type: DT_INT32
    }
  }
  attr {
    key: "value"
    value {
      tensor {
        dtype: DT_INT32
        tensor_shape {
        }
        int_val: 1
      }
    }
  }
}
node {
  name: "dnn/input_from_feature_columns/input_layer/alpha_indicator/alpha_lookup/range"
  op: "Range"
  input: "dnn/input_from_feature_columns/input_layer/alpha_indicator/alpha_lookup/range/start"
  input: "dnn/input_from_feature_columns/input_layer/alpha_indicator/alpha_lookup/Size"
  input: "dnn/input_from_feature_columns/input_layer/alpha_indicator/alpha_lookup/range/delta"
  attr {
    key: "Tidx"
    value {
      type: DT_INT32
    }
  }
  attr {
    key: "_output_shapes"
    value {
      list {
        shape {
          dim {
            size: 2
          }
        }
      }
    }
  }
}
node {
  name: "dnn/input_from_feature_columns/input_layer/alpha_indicator/alpha_lookup/ToInt64"
  op: "Cast"
  input: "dnn/input_from_feature_columns/input_layer/alpha_indicator/alpha_lookup/range"
  attr {
    key: "DstT"
    value {
      type: DT_INT64
    }
  }
  attr {
    key: "SrcT"
    value {
      type: DT_INT32
    }
  }
  attr {
    key: "_output_shapes"
    value {
      list {
        shape {
          dim {
            size: 2
          }
        }
      }
    }
  }
}
node {
  name: "dnn/input_from_feature_columns/input_layer/alpha_indicator/alpha_lookup/hash_table"
  op: "HashTableV2"
  attr {
    key: "_output_shapes"
    value {
      list {
        shape {
        }
      }
    }
  }
  attr {
    key: "container"
    value {
      s: ""
    }
  }
  attr {
    key: "key_dtype"
    value {
      type: DT_STRING
    }
  }
  attr {
    key: "shared_name"
    value {
      s: ""
    }
  }
  attr {
    key: "use_node_name_sharing"
    value {
      b: false
    }
  }
  attr {
    key: "value_dtype"
    value {
      type: DT_INT64
    }
  }
}
node {
  name: "dnn/input_from_feature_columns/input_layer/alpha_indicator/alpha_lookup/hash_table/Const"
  op: "Const"
  attr {
    key: "_output_shapes"
    value {
      list {
        shape {
        }
      }
    }
  }
  attr {
    key: "dtype"
    value {
      type: DT_INT64
    }
  }
  attr {
    key: "value"
    value {
      tensor {
        dtype: DT_INT64
        tensor_shape {
        }
        int64_val: -1
      }
    }
  }
}
node {
  name: "dnn/input_from_feature_columns/input_layer/alpha_indicator/alpha_lookup/hash_table/table_init"
  op: "InitializeTableV2"
  input: "dnn/input_from_feature_columns/input_layer/alpha_indicator/alpha_lookup/hash_table"
  input: "dnn/input_from_feature_columns/input_layer/alpha_indicator/alpha_lookup/Const"
  input: "dnn/input_from_feature_columns/input_layer/alpha_indicator/alpha_lookup/ToInt64"
  attr {
    key: "Tkey"
    value {
      type: DT_STRING
    }
  }
  attr {
    key: "Tval"
    value {
      type: DT_INT64
    }
  }
}
node {
  name: "dnn/input_from_feature_columns/input_layer/alpha_indicator/hash_table_Lookup"
  op: "LookupTableFindV2"
  input: "dnn/input_from_feature_columns/input_layer/alpha_indicator/alpha_lookup/hash_table"
  input: "dnn/input_from_feature_columns/input_layer/alpha_indicator/to_sparse_input/Gather"
  input: "dnn/input_from_feature_columns/input_layer/alpha_indicator/alpha_lookup/hash_table/Const"
  attr {
    key: "Tin"
    value {
      type: DT_STRING
    }
  }
  attr {
    key: "Tout"
    value {
      type: DT_INT64
    }
  }
  attr {
    key: "_output_shapes"
    value {
      list {
        shape {
          dim {
            size: -1
          }
        }
      }
    }
  }
}
node {
  name: "dnn/input_from_feature_columns/input_layer/alpha_indicator/SparseToDense/default_value"
  op: "Const"
  attr {
    key: "_output_shapes"
    value {
      list {
        shape {
        }
      }
    }
  }
  attr {
    key: "dtype"
    value {
      type: DT_INT64
    }
  }
  attr {
    key: "value"
    value {
      tensor {
        dtype: DT_INT64
        tensor_shape {
        }
        int64_val: -1
      }
    }
  }
}
node {
  name: "dnn/input_from_feature_columns/input_layer/alpha_indicator/SparseToDense"
  op: "SparseToDense"
  input: "dnn/input_from_feature_columns/input_layer/alpha_indicator/to_sparse_input/Where"
  input: "dnn/input_from_feature_columns/input_layer/alpha_indicator/to_sparse_input/Cast"
  input: "dnn/input_from_feature_columns/input_layer/alpha_indicator/hash_table_Lookup"
  input: "dnn/input_from_feature_columns/input_layer/alpha_indicator/SparseToDense/default_value"
  attr {
    key: "T"
    value {
      type: DT_INT64
    }
  }
  attr {
    key: "Tindices"
    value {
      type: DT_INT64
    }
  }
  attr {
    key: "_output_shapes"
    value {
      list {
        shape {
          dim {
            size: -1
          }
          dim {
            size: -1
          }
        }
      }
    }
  }
  attr {
    key: "validate_indices"
    value {
      b: true
    }
  }
}
node {
  name: "dnn/input_from_feature_columns/input_layer/alpha_indicator/one_hot/Const"
  op: "Const"
  attr {
    key: "_output_shapes"
    value {
      list {
        shape {
        }
      }
    }
  }
  attr {
    key: "dtype"
    value {
      type: DT_FLOAT
    }
  }
  attr {
    key: "value"
    value {
      tensor {
        dtype: DT_FLOAT
        tensor_shape {
        }
        float_val: 1.0
      }
    }
  }
}
node {
  name: "dnn/input_from_feature_columns/input_layer/alpha_indicator/one_hot/Const_1"
  op: "Const"
  attr {
    key: "_output_shapes"
    value {
      list {
        shape {
        }
      }
    }
  }
  attr {
    key: "dtype"
    value {
      type: DT_FLOAT
    }
  }
  attr {
    key: "value"
    value {
      tensor {
        dtype: DT_FLOAT
        tensor_shape {
        }
        float_val: 0.0
      }
    }
  }
}
node {
  name: "dnn/input_from_feature_columns/input_layer/alpha_indicator/one_hot/depth"
  op: "Const"
  attr {
    key: "_output_shapes"
    value {
      list {
        shape {
        }
      }
    }
  }
  attr {
    key: "dtype"
    value {
      type: DT_INT32
    }
  }
  attr {
    key: "value"
    value {
      tensor {
        dtype: DT_INT32
        tensor_shape {
        }
        int_val: 2
      }
    }
  }
}
node {
  name: "dnn/input_from_feature_columns/input_layer/alpha_indicator/one_hot/on_value"
  op: "Const"
  attr {
    key: "_output_shapes"
    value {
      list {
        shape {
        }
      }
    }
  }
  attr {
    key: "dtype"
    value {
      type: DT_FLOAT
    }
  }
  attr {
    key: "value"
    value {
      tensor {
        dtype: DT_FLOAT
        tensor_shape {
        }
        float_val: 1.0
      }
    }
  }
}
node {
  name: "dnn/input_from_feature_columns/input_layer/alpha_indicator/one_hot/off_value"
  op: "Const"
  attr {
    key: "_output_shapes"
    value {
      list {
        shape {
        }
      }
    }
  }
  attr {
    key: "dtype"
    value {
      type: DT_FLOAT
    }
  }
  attr {
    key: "value"
    value {
      tensor {
        dtype: DT_FLOAT
        tensor_shape {
        }
        float_val: 0.0
      }
    }
  }
}
node {
  name: "dnn/input_from_feature_columns/input_layer/alpha_indicator/one_hot"
  op: "OneHot"
  input: "dnn/input_from_feature_columns/input_layer/alpha_indicator/SparseToDense"
  input: "dnn/input_from_feature_columns/input_layer/alpha_indicator/one_hot/depth"
  input: "dnn/input_from_feature_columns/input_layer/alpha_indicator/one_hot/on_value"
  input: "dnn/input_from_feature_columns/input_layer/alpha_indicator/one_hot/off_value"
  attr {
    key: "T"
    value {
      type: DT_FLOAT
    }
  }
  attr {
    key: "TI"
    value {
      type: DT_INT64
    }
  }
  attr {
    key: "_output_shapes"
    value {
      list {
        shape {
          dim {
            size: -1
          }
          dim {
            size: -1
          }
          dim {
            size: 2
          }
        }
      }
    }
  }
  attr {
    key: "axis"
    value {
      i: -1
    }
  }
}
node {
  name: "dnn/input_from_feature_columns/input_layer/alpha_indicator/Sum/reduction_indices"
  op: "Const"
  attr {
    key: "_output_shapes"
    value {
      list {
        shape {
          dim {
            size: 1
          }
        }
      }
    }
  }
  attr {
    key: "dtype"
    value {
      type: DT_INT32
    }
  }
  attr {
    key: "value"
    value {
      tensor {
        dtype: DT_INT32
        tensor_shape {
          dim {
            size: 1
          }
        }
        int_val: 1
      }
    }
  }
}
node {
  name: "dnn/input_from_feature_columns/input_layer/alpha_indicator/Sum"
  op: "Sum"
  input: "dnn/input_from_feature_columns/input_layer/alpha_indicator/one_hot"
  input: "dnn/input_from_feature_columns/input_layer/alpha_indicator/Sum/reduction_indices"
  attr {
    key: "T"
    value {
      type: DT_FLOAT
    }
  }
  attr {
    key: "Tidx"
    value {
      type: DT_INT32
    }
  }
  attr {
    key: "_output_shapes"
    value {
      list {
        shape {
          dim {
            size: -1
          }
          dim {
            size: 2
          }
        }
      }
    }
  }
  attr {
    key: "keep_dims"
    value {
      b: false
    }
  }
}
node {
  name: "dnn/input_from_feature_columns/input_layer/alpha_indicator/Shape"
  op: "Shape"
  input: "dnn/input_from_feature_columns/input_layer/alpha_indicator/Sum"
  attr {
    key: "T"
    value {
      type: DT_FLOAT
    }
  }
  attr {
    key: "_output_shapes"
    value {
      list {
        shape {
          dim {
            size: 2
          }
        }
      }
    }
  }
  attr {
    key: "out_type"
    value {
      type: DT_INT32
    }
  }
}
node {
  name: "dnn/input_from_feature_columns/input_layer/alpha_indicator/strided_slice/stack"
  op: "Const"
  attr {
    key: "_output_shapes"
    value {
      list {
        shape {
          dim {
            size: 1
          }
        }
      }
    }
  }
  attr {
    key: "dtype"
    value {
      type: DT_INT32
    }
  }
  attr {
    key: "value"
    value {
      tensor {
        dtype: DT_INT32
        tensor_shape {
          dim {
            size: 1
          }
        }
        int_val: 0
      }
    }
  }
}
node {
  name: "dnn/input_from_feature_columns/input_layer/alpha_indicator/strided_slice/stack_1"
  op: "Const"
  attr {
    key: "_output_shapes"
    value {
      list {
        shape {
          dim {
            size: 1
          }
        }
      }
    }
  }
  attr {
    key: "dtype"
    value {
      type: DT_INT32
    }
  }
  attr {
    key: "value"
    value {
      tensor {
        dtype: DT_INT32
        tensor_shape {
          dim {
            size: 1
          }
        }
        int_val: 1
      }
    }
  }
}
node {
  name: "dnn/input_from_feature_columns/input_layer/alpha_indicator/strided_slice/stack_2"
  op: "Const"
  attr {
    key: "_output_shapes"
    value {
      list {
        shape {
          dim {
            size: 1
          }
        }
      }
    }
  }
  attr {
    key: "dtype"
    value {
      type: DT_INT32
    }
  }
  attr {
    key: "value"
    value {
      tensor {
        dtype: DT_INT32
        tensor_shape {
          dim {
            size: 1
          }
        }
        int_val: 1
      }
    }
  }
}
node {
  name: "dnn/input_from_feature_columns/input_layer/alpha_indicator/strided_slice"
  op: "StridedSlice"
  input: "dnn/input_from_feature_columns/input_layer/alpha_indicator/Shape"
  input: "dnn/input_from_feature_columns/input_layer/alpha_indicator/strided_slice/stack"
  input: "dnn/input_from_feature_columns/input_layer/alpha_indicator/strided_slice/stack_1"
  input: "dnn/input_from_feature_columns/input_layer/alpha_indicator/strided_slice/stack_2"
  attr {
    key: "Index"
    value {
      type: DT_INT32
    }
  }
  attr {
    key: "T"
    value {
      type: DT_INT32
    }
  }
  attr {
    key: "_output_shapes"
    value {
      list {
        shape {
        }
      }
    }
  }
  attr {
    key: "begin_mask"
    value {
      i: 0
    }
  }
  attr {
    key: "ellipsis_mask"
    value {
      i: 0
    }
  }
  attr {
    key: "end_mask"
    value {
      i: 0
    }
  }
  attr {
    key: "new_axis_mask"
    value {
      i: 0
    }
  }
  attr {
    key: "shrink_axis_mask"
    value {
      i: 1
    }
  }
}
node {
  name: "dnn/input_from_feature_columns/input_layer/alpha_indicator/Reshape/shape/1"
  op: "Const"
  attr {
    key: "_output_shapes"
    value {
      list {
        shape {
        }
      }
    }
  }
  attr {
    key: "dtype"
    value {
      type: DT_INT32
    }
  }
  attr {
    key: "value"
    value {
      tensor {
        dtype: DT_INT32
        tensor_shape {
        }
        int_val: 2
      }
    }
  }
}
node {
  name: "dnn/input_from_feature_columns/input_layer/alpha_indicator/Reshape/shape"
  op: "Pack"
  input: "dnn/input_from_feature_columns/input_layer/alpha_indicator/strided_slice"
  input: "dnn/input_from_feature_columns/input_layer/alpha_indicator/Reshape/shape/1"
  attr {
    key: "N"
    value {
      i: 2
    }
  }
  attr {
    key: "T"
    value {
      type: DT_INT32
    }
  }
  attr {
    key: "_output_shapes"
    value {
      list {
        shape {
          dim {
            size: 2
          }
        }
      }
    }
  }
  attr {
    key: "axis"
    value {
      i: 0
    }
  }
}
node {
  name: "dnn/input_from_feature_columns/input_layer/alpha_indicator/Reshape"
  op: "Reshape"
  input: "dnn/input_from_feature_columns/input_layer/alpha_indicator/Sum"
  input: "dnn/input_from_feature_columns/input_layer/alpha_indicator/Reshape/shape"
  attr {
    key: "T"
    value {
      type: DT_FLOAT
    }
  }
  attr {
    key: "Tshape"
    value {
      type: DT_INT32
    }
  }
  attr {
    key: "_output_shapes"
    value {
      list {
        shape {
          dim {
            size: -1
          }
          dim {
            size: 2
          }
        }
      }
    }
  }
}
node {
  name: "dnn/input_from_feature_columns/input_layer/beta_indicator/to_sparse_input/Shape"
  op: "Shape"
  input: "shuffle_batch:1"
  attr {
    key: "T"
    value {
      type: DT_STRING
    }
  }
  attr {
    key: "_output_shapes"
    value {
      list {
        shape {
          dim {
            size: 2
          }
        }
      }
    }
  }
  attr {
    key: "out_type"
    value {
      type: DT_INT32
    }
  }
}
node {
  name: "dnn/input_from_feature_columns/input_layer/beta_indicator/to_sparse_input/Cast"
  op: "Cast"
  input: "dnn/input_from_feature_columns/input_layer/beta_indicator/to_sparse_input/Shape"
  attr {
    key: "DstT"
    value {
      type: DT_INT64
    }
  }
  attr {
    key: "SrcT"
    value {
      type: DT_INT32
    }
  }
  attr {
    key: "_output_shapes"
    value {
      list {
        shape {
          dim {
            size: 2
          }
        }
      }
    }
  }
}
node {
  name: "dnn/input_from_feature_columns/input_layer/beta_indicator/to_sparse_input/Cast_1/x"
  op: "Const"
  attr {
    key: "_output_shapes"
    value {
      list {
        shape {
        }
      }
    }
  }
  attr {
    key: "dtype"
    value {
      type: DT_STRING
    }
  }
  attr {
    key: "value"
    value {
      tensor {
        dtype: DT_STRING
        tensor_shape {
        }
        string_val: ""
      }
    }
  }
}
node {
  name: "dnn/input_from_feature_columns/input_layer/beta_indicator/to_sparse_input/NotEqual"
  op: "NotEqual"
  input: "shuffle_batch:1"
  input: "dnn/input_from_feature_columns/input_layer/beta_indicator/to_sparse_input/Cast_1/x"
  attr {
    key: "T"
    value {
      type: DT_STRING
    }
  }
  attr {
    key: "_output_shapes"
    value {
      list {
        shape {
          dim {
            size: -1
          }
          dim {
            size: 1
          }
        }
      }
    }
  }
}
node {
  name: "dnn/input_from_feature_columns/input_layer/beta_indicator/to_sparse_input/Where"
  op: "Where"
  input: "dnn/input_from_feature_columns/input_layer/beta_indicator/to_sparse_input/NotEqual"
  attr {
    key: "_output_shapes"
    value {
      list {
        shape {
          dim {
            size: -1
          }
          dim {
            size: 2
          }
        }
      }
    }
  }
}
node {
  name: "dnn/input_from_feature_columns/input_layer/beta_indicator/to_sparse_input/Reshape/shape"
  op: "Const"
  attr {
    key: "_output_shapes"
    value {
      list {
        shape {
          dim {
            size: 1
          }
        }
      }
    }
  }
  attr {
    key: "dtype"
    value {
      type: DT_INT32
    }
  }
  attr {
    key: "value"
    value {
      tensor {
        dtype: DT_INT32
        tensor_shape {
          dim {
            size: 1
          }
        }
        int_val: -1
      }
    }
  }
}
node {
  name: "dnn/input_from_feature_columns/input_layer/beta_indicator/to_sparse_input/Reshape"
  op: "Reshape"
  input: "shuffle_batch:1"
  input: "dnn/input_from_feature_columns/input_layer/beta_indicator/to_sparse_input/Reshape/shape"
  attr {
    key: "T"
    value {
      type: DT_STRING
    }
  }
  attr {
    key: "Tshape"
    value {
      type: DT_INT32
    }
  }
  attr {
    key: "_output_shapes"
    value {
      list {
        shape {
          dim {
            size: -1
          }
        }
      }
    }
  }
}
node {
  name: "dnn/input_from_feature_columns/input_layer/beta_indicator/to_sparse_input/strided_slice/stack"
  op: "Const"
  attr {
    key: "_output_shapes"
    value {
      list {
        shape {
          dim {
            size: 2
          }
        }
      }
    }
  }
  attr {
    key: "dtype"
    value {
      type: DT_INT32
    }
  }
  attr {
    key: "value"
    value {
      tensor {
        dtype: DT_INT32
        tensor_shape {
          dim {
            size: 2
          }
        }
        tensor_content: "\000\000\000\000\001\000\000\000"
      }
    }
  }
}
node {
  name: "dnn/input_from_feature_columns/input_layer/beta_indicator/to_sparse_input/strided_slice/stack_1"
  op: "Const"
  attr {
    key: "_output_shapes"
    value {
      list {
        shape {
          dim {
            size: 2
          }
        }
      }
    }
  }
  attr {
    key: "dtype"
    value {
      type: DT_INT32
    }
  }
  attr {
    key: "value"
    value {
      tensor {
        dtype: DT_INT32
        tensor_shape {
          dim {
            size: 2
          }
        }
        tensor_content: "\000\000\000\000\002\000\000\000"
      }
    }
  }
}
node {
  name: "dnn/input_from_feature_columns/input_layer/beta_indicator/to_sparse_input/strided_slice/stack_2"
  op: "Const"
  attr {
    key: "_output_shapes"
    value {
      list {
        shape {
          dim {
            size: 2
          }
        }
      }
    }
  }
  attr {
    key: "dtype"
    value {
      type: DT_INT32
    }
  }
  attr {
    key: "value"
    value {
      tensor {
        dtype: DT_INT32
        tensor_shape {
          dim {
            size: 2
          }
        }
        tensor_content: "\001\000\000\000\001\000\000\000"
      }
    }
  }
}
node {
  name: "dnn/input_from_feature_columns/input_layer/beta_indicator/to_sparse_input/strided_slice"
  op: "StridedSlice"
  input: "dnn/input_from_feature_columns/input_layer/beta_indicator/to_sparse_input/Where"
  input: "dnn/input_from_feature_columns/input_layer/beta_indicator/to_sparse_input/strided_slice/stack"
  input: "dnn/input_from_feature_columns/input_layer/beta_indicator/to_sparse_input/strided_slice/stack_1"
  input: "dnn/input_from_feature_columns/input_layer/beta_indicator/to_sparse_input/strided_slice/stack_2"
  attr {
    key: "Index"
    value {
      type: DT_INT32
    }
  }
  attr {
    key: "T"
    value {
      type: DT_INT64
    }
  }
  attr {
    key: "_output_shapes"
    value {
      list {
        shape {
          dim {
            size: -1
          }
        }
      }
    }
  }
  attr {
    key: "begin_mask"
    value {
      i: 1
    }
  }
  attr {
    key: "ellipsis_mask"
    value {
      i: 0
    }
  }
  attr {
    key: "end_mask"
    value {
      i: 1
    }
  }
  attr {
    key: "new_axis_mask"
    value {
      i: 0
    }
  }
  attr {
    key: "shrink_axis_mask"
    value {
      i: 2
    }
  }
}
node {
  name: "dnn/input_from_feature_columns/input_layer/beta_indicator/to_sparse_input/strided_slice_1/stack"
  op: "Const"
  attr {
    key: "_output_shapes"
    value {
      list {
        shape {
          dim {
            size: 2
          }
        }
      }
    }
  }
  attr {
    key: "dtype"
    value {
      type: DT_INT32
    }
  }
  attr {
    key: "value"
    value {
      tensor {
        dtype: DT_INT32
        tensor_shape {
          dim {
            size: 2
          }
        }
        tensor_content: "\000\000\000\000\000\000\000\000"
      }
    }
  }
}
node {
  name: "dnn/input_from_feature_columns/input_layer/beta_indicator/to_sparse_input/strided_slice_1/stack_1"
  op: "Const"
  attr {
    key: "_output_shapes"
    value {
      list {
        shape {
          dim {
            size: 2
          }
        }
      }
    }
  }
  attr {
    key: "dtype"
    value {
      type: DT_INT32
    }
  }
  attr {
    key: "value"
    value {
      tensor {
        dtype: DT_INT32
        tensor_shape {
          dim {
            size: 2
          }
        }
        tensor_content: "\000\000\000\000\001\000\000\000"
      }
    }
  }
}
node {
  name: "dnn/input_from_feature_columns/input_layer/beta_indicator/to_sparse_input/strided_slice_1/stack_2"
  op: "Const"
  attr {
    key: "_output_shapes"
    value {
      list {
        shape {
          dim {
            size: 2
          }
        }
      }
    }
  }
  attr {
    key: "dtype"
    value {
      type: DT_INT32
    }
  }
  attr {
    key: "value"
    value {
      tensor {
        dtype: DT_INT32
        tensor_shape {
          dim {
            size: 2
          }
        }
        tensor_content: "\001\000\000\000\001\000\000\000"
      }
    }
  }
}
node {
  name: "dnn/input_from_feature_columns/input_layer/beta_indicator/to_sparse_input/strided_slice_1"
  op: "StridedSlice"
  input: "dnn/input_from_feature_columns/input_layer/beta_indicator/to_sparse_input/Where"
  input: "dnn/input_from_feature_columns/input_layer/beta_indicator/to_sparse_input/strided_slice_1/stack"
  input: "dnn/input_from_feature_columns/input_layer/beta_indicator/to_sparse_input/strided_slice_1/stack_1"
  input: "dnn/input_from_feature_columns/input_layer/beta_indicator/to_sparse_input/strided_slice_1/stack_2"
  attr {
    key: "Index"
    value {
      type: DT_INT32
    }
  }
  attr {
    key: "T"
    value {
      type: DT_INT64
    }
  }
  attr {
    key: "_output_shapes"
    value {
      list {
        shape {
          dim {
            size: -1
          }
          dim {
            size: 1
          }
        }
      }
    }
  }
  attr {
    key: "begin_mask"
    value {
      i: 3
    }
  }
  attr {
    key: "ellipsis_mask"
    value {
      i: 0
    }
  }
  attr {
    key: "end_mask"
    value {
      i: 1
    }
  }
  attr {
    key: "new_axis_mask"
    value {
      i: 0
    }
  }
  attr {
    key: "shrink_axis_mask"
    value {
      i: 0
    }
  }
}
node {
  name: "dnn/input_from_feature_columns/input_layer/beta_indicator/to_sparse_input/unstack"
  op: "Unpack"
  input: "dnn/input_from_feature_columns/input_layer/beta_indicator/to_sparse_input/Cast"
  attr {
    key: "T"
    value {
      type: DT_INT64
    }
  }
  attr {
    key: "_output_shapes"
    value {
      list {
        shape {
        }
        shape {
        }
      }
    }
  }
  attr {
    key: "axis"
    value {
      i: 0
    }
  }
  attr {
    key: "num"
    value {
      i: 2
    }
  }
}
node {
  name: "dnn/input_from_feature_columns/input_layer/beta_indicator/to_sparse_input/stack"
  op: "Pack"
  input: "dnn/input_from_feature_columns/input_layer/beta_indicator/to_sparse_input/unstack:1"
  attr {
    key: "N"
    value {
      i: 1
    }
  }
  attr {
    key: "T"
    value {
      type: DT_INT64
    }
  }
  attr {
    key: "_output_shapes"
    value {
      list {
        shape {
          dim {
            size: 1
          }
        }
      }
    }
  }
  attr {
    key: "axis"
    value {
      i: 0
    }
  }
}
node {
  name: "dnn/input_from_feature_columns/input_layer/beta_indicator/to_sparse_input/Mul"
  op: "Mul"
  input: "dnn/input_from_feature_columns/input_layer/beta_indicator/to_sparse_input/strided_slice_1"
  input: "dnn/input_from_feature_columns/input_layer/beta_indicator/to_sparse_input/stack"
  attr {
    key: "T"
    value {
      type: DT_INT64
    }
  }
  attr {
    key: "_output_shapes"
    value {
      list {
        shape {
          dim {
            size: -1
          }
          dim {
            size: 1
          }
        }
      }
    }
  }
}
node {
  name: "dnn/input_from_feature_columns/input_layer/beta_indicator/to_sparse_input/Sum/reduction_indices"
  op: "Const"
  attr {
    key: "_output_shapes"
    value {
      list {
        shape {
          dim {
            size: 1
          }
        }
      }
    }
  }
  attr {
    key: "dtype"
    value {
      type: DT_INT32
    }
  }
  attr {
    key: "value"
    value {
      tensor {
        dtype: DT_INT32
        tensor_shape {
          dim {
            size: 1
          }
        }
        int_val: 1
      }
    }
  }
}
node {
  name: "dnn/input_from_feature_columns/input_layer/beta_indicator/to_sparse_input/Sum"
  op: "Sum"
  input: "dnn/input_from_feature_columns/input_layer/beta_indicator/to_sparse_input/Mul"
  input: "dnn/input_from_feature_columns/input_layer/beta_indicator/to_sparse_input/Sum/reduction_indices"
  attr {
    key: "T"
    value {
      type: DT_INT64
    }
  }
  attr {
    key: "Tidx"
    value {
      type: DT_INT32
    }
  }
  attr {
    key: "_output_shapes"
    value {
      list {
        shape {
          dim {
            size: -1
          }
        }
      }
    }
  }
  attr {
    key: "keep_dims"
    value {
      b: false
    }
  }
}
node {
  name: "dnn/input_from_feature_columns/input_layer/beta_indicator/to_sparse_input/Add"
  op: "Add"
  input: "dnn/input_from_feature_columns/input_layer/beta_indicator/to_sparse_input/strided_slice"
  input: "dnn/input_from_feature_columns/input_layer/beta_indicator/to_sparse_input/Sum"
  attr {
    key: "T"
    value {
      type: DT_INT64
    }
  }
  attr {
    key: "_output_shapes"
    value {
      list {
        shape {
          dim {
            size: -1
          }
        }
      }
    }
  }
}
node {
  name: "dnn/input_from_feature_columns/input_layer/beta_indicator/to_sparse_input/Gather"
  op: "Gather"
  input: "dnn/input_from_feature_columns/input_layer/beta_indicator/to_sparse_input/Reshape"
  input: "dnn/input_from_feature_columns/input_layer/beta_indicator/to_sparse_input/Add"
  attr {
    key: "Tindices"
    value {
      type: DT_INT64
    }
  }
  attr {
    key: "Tparams"
    value {
      type: DT_STRING
    }
  }
  attr {
    key: "_output_shapes"
    value {
      list {
        shape {
          dim {
            size: -1
          }
        }
      }
    }
  }
  attr {
    key: "validate_indices"
    value {
      b: true
    }
  }
}
node {
  name: "dnn/input_from_feature_columns/input_layer/beta_indicator/beta_lookup/Const"
  op: "Const"
  attr {
    key: "_output_shapes"
    value {
      list {
        shape {
          dim {
            size: 2
          }
        }
      }
    }
  }
  attr {
    key: "dtype"
    value {
      type: DT_STRING
    }
  }
  attr {
    key: "value"
    value {
      tensor {
        dtype: DT_STRING
        tensor_shape {
          dim {
            size: 2
          }
        }
        string_val: "bx01"
        string_val: "bx02"
      }
    }
  }
}
node {
  name: "dnn/input_from_feature_columns/input_layer/beta_indicator/beta_lookup/Size"
  op: "Const"
  attr {
    key: "_output_shapes"
    value {
      list {
        shape {
        }
      }
    }
  }
  attr {
    key: "dtype"
    value {
      type: DT_INT32
    }
  }
  attr {
    key: "value"
    value {
      tensor {
        dtype: DT_INT32
        tensor_shape {
        }
        int_val: 2
      }
    }
  }
}
node {
  name: "dnn/input_from_feature_columns/input_layer/beta_indicator/beta_lookup/range/start"
  op: "Const"
  attr {
    key: "_output_shapes"
    value {
      list {
        shape {
        }
      }
    }
  }
  attr {
    key: "dtype"
    value {
      type: DT_INT32
    }
  }
  attr {
    key: "value"
    value {
      tensor {
        dtype: DT_INT32
        tensor_shape {
        }
        int_val: 0
      }
    }
  }
}
node {
  name: "dnn/input_from_feature_columns/input_layer/beta_indicator/beta_lookup/range/delta"
  op: "Const"
  attr {
    key: "_output_shapes"
    value {
      list {
        shape {
        }
      }
    }
  }
  attr {
    key: "dtype"
    value {
      type: DT_INT32
    }
  }
  attr {
    key: "value"
    value {
      tensor {
        dtype: DT_INT32
        tensor_shape {
        }
        int_val: 1
      }
    }
  }
}
node {
  name: "dnn/input_from_feature_columns/input_layer/beta_indicator/beta_lookup/range"
  op: "Range"
  input: "dnn/input_from_feature_columns/input_layer/beta_indicator/beta_lookup/range/start"
  input: "dnn/input_from_feature_columns/input_layer/beta_indicator/beta_lookup/Size"
  input: "dnn/input_from_feature_columns/input_layer/beta_indicator/beta_lookup/range/delta"
  attr {
    key: "Tidx"
    value {
      type: DT_INT32
    }
  }
  attr {
    key: "_output_shapes"
    value {
      list {
        shape {
          dim {
            size: 2
          }
        }
      }
    }
  }
}
node {
  name: "dnn/input_from_feature_columns/input_layer/beta_indicator/beta_lookup/ToInt64"
  op: "Cast"
  input: "dnn/input_from_feature_columns/input_layer/beta_indicator/beta_lookup/range"
  attr {
    key: "DstT"
    value {
      type: DT_INT64
    }
  }
  attr {
    key: "SrcT"
    value {
      type: DT_INT32
    }
  }
  attr {
    key: "_output_shapes"
    value {
      list {
        shape {
          dim {
            size: 2
          }
        }
      }
    }
  }
}
node {
  name: "dnn/input_from_feature_columns/input_layer/beta_indicator/beta_lookup/hash_table"
  op: "HashTableV2"
  attr {
    key: "_output_shapes"
    value {
      list {
        shape {
        }
      }
    }
  }
  attr {
    key: "container"
    value {
      s: ""
    }
  }
  attr {
    key: "key_dtype"
    value {
      type: DT_STRING
    }
  }
  attr {
    key: "shared_name"
    value {
      s: ""
    }
  }
  attr {
    key: "use_node_name_sharing"
    value {
      b: false
    }
  }
  attr {
    key: "value_dtype"
    value {
      type: DT_INT64
    }
  }
}
node {
  name: "dnn/input_from_feature_columns/input_layer/beta_indicator/beta_lookup/hash_table/Const"
  op: "Const"
  attr {
    key: "_output_shapes"
    value {
      list {
        shape {
        }
      }
    }
  }
  attr {
    key: "dtype"
    value {
      type: DT_INT64
    }
  }
  attr {
    key: "value"
    value {
      tensor {
        dtype: DT_INT64
        tensor_shape {
        }
        int64_val: -1
      }
    }
  }
}
node {
  name: "dnn/input_from_feature_columns/input_layer/beta_indicator/beta_lookup/hash_table/table_init"
  op: "InitializeTableV2"
  input: "dnn/input_from_feature_columns/input_layer/beta_indicator/beta_lookup/hash_table"
  input: "dnn/input_from_feature_columns/input_layer/beta_indicator/beta_lookup/Const"
  input: "dnn/input_from_feature_columns/input_layer/beta_indicator/beta_lookup/ToInt64"
  attr {
    key: "Tkey"
    value {
      type: DT_STRING
    }
  }
  attr {
    key: "Tval"
    value {
      type: DT_INT64
    }
  }
}
node {
  name: "dnn/input_from_feature_columns/input_layer/beta_indicator/hash_table_Lookup"
  op: "LookupTableFindV2"
  input: "dnn/input_from_feature_columns/input_layer/beta_indicator/beta_lookup/hash_table"
  input: "dnn/input_from_feature_columns/input_layer/beta_indicator/to_sparse_input/Gather"
  input: "dnn/input_from_feature_columns/input_layer/beta_indicator/beta_lookup/hash_table/Const"
  attr {
    key: "Tin"
    value {
      type: DT_STRING
    }
  }
  attr {
    key: "Tout"
    value {
      type: DT_INT64
    }
  }
  attr {
    key: "_output_shapes"
    value {
      list {
        shape {
          dim {
            size: -1
          }
        }
      }
    }
  }
}
node {
  name: "dnn/input_from_feature_columns/input_layer/beta_indicator/SparseToDense/default_value"
  op: "Const"
  attr {
    key: "_output_shapes"
    value {
      list {
        shape {
        }
      }
    }
  }
  attr {
    key: "dtype"
    value {
      type: DT_INT64
    }
  }
  attr {
    key: "value"
    value {
      tensor {
        dtype: DT_INT64
        tensor_shape {
        }
        int64_val: -1
      }
    }
  }
}
node {
  name: "dnn/input_from_feature_columns/input_layer/beta_indicator/SparseToDense"
  op: "SparseToDense"
  input: "dnn/input_from_feature_columns/input_layer/beta_indicator/to_sparse_input/Where"
  input: "dnn/input_from_feature_columns/input_layer/beta_indicator/to_sparse_input/Cast"
  input: "dnn/input_from_feature_columns/input_layer/beta_indicator/hash_table_Lookup"
  input: "dnn/input_from_feature_columns/input_layer/beta_indicator/SparseToDense/default_value"
  attr {
    key: "T"
    value {
      type: DT_INT64
    }
  }
  attr {
    key: "Tindices"
    value {
      type: DT_INT64
    }
  }
  attr {
    key: "_output_shapes"
    value {
      list {
        shape {
          dim {
            size: -1
          }
          dim {
            size: -1
          }
        }
      }
    }
  }
  attr {
    key: "validate_indices"
    value {
      b: true
    }
  }
}
node {
  name: "dnn/input_from_feature_columns/input_layer/beta_indicator/one_hot/Const"
  op: "Const"
  attr {
    key: "_output_shapes"
    value {
      list {
        shape {
        }
      }
    }
  }
  attr {
    key: "dtype"
    value {
      type: DT_FLOAT
    }
  }
  attr {
    key: "value"
    value {
      tensor {
        dtype: DT_FLOAT
        tensor_shape {
        }
        float_val: 1.0
      }
    }
  }
}
node {
  name: "dnn/input_from_feature_columns/input_layer/beta_indicator/one_hot/Const_1"
  op: "Const"
  attr {
    key: "_output_shapes"
    value {
      list {
        shape {
        }
      }
    }
  }
  attr {
    key: "dtype"
    value {
      type: DT_FLOAT
    }
  }
  attr {
    key: "value"
    value {
      tensor {
        dtype: DT_FLOAT
        tensor_shape {
        }
        float_val: 0.0
      }
    }
  }
}
node {
  name: "dnn/input_from_feature_columns/input_layer/beta_indicator/one_hot/depth"
  op: "Const"
  attr {
    key: "_output_shapes"
    value {
      list {
        shape {
        }
      }
    }
  }
  attr {
    key: "dtype"
    value {
      type: DT_INT32
    }
  }
  attr {
    key: "value"
    value {
      tensor {
        dtype: DT_INT32
        tensor_shape {
        }
        int_val: 2
      }
    }
  }
}
node {
  name: "dnn/input_from_feature_columns/input_layer/beta_indicator/one_hot/on_value"
  op: "Const"
  attr {
    key: "_output_shapes"
    value {
      list {
        shape {
        }
      }
    }
  }
  attr {
    key: "dtype"
    value {
      type: DT_FLOAT
    }
  }
  attr {
    key: "value"
    value {
      tensor {
        dtype: DT_FLOAT
        tensor_shape {
        }
        float_val: 1.0
      }
    }
  }
}
node {
  name: "dnn/input_from_feature_columns/input_layer/beta_indicator/one_hot/off_value"
  op: "Const"
  attr {
    key: "_output_shapes"
    value {
      list {
        shape {
        }
      }
    }
  }
  attr {
    key: "dtype"
    value {
      type: DT_FLOAT
    }
  }
  attr {
    key: "value"
    value {
      tensor {
        dtype: DT_FLOAT
        tensor_shape {
        }
        float_val: 0.0
      }
    }
  }
}
node {
  name: "dnn/input_from_feature_columns/input_layer/beta_indicator/one_hot"
  op: "OneHot"
  input: "dnn/input_from_feature_columns/input_layer/beta_indicator/SparseToDense"
  input: "dnn/input_from_feature_columns/input_layer/beta_indicator/one_hot/depth"
  input: "dnn/input_from_feature_columns/input_layer/beta_indicator/one_hot/on_value"
  input: "dnn/input_from_feature_columns/input_layer/beta_indicator/one_hot/off_value"
  attr {
    key: "T"
    value {
      type: DT_FLOAT
    }
  }
  attr {
    key: "TI"
    value {
      type: DT_INT64
    }
  }
  attr {
    key: "_output_shapes"
    value {
      list {
        shape {
          dim {
            size: -1
          }
          dim {
            size: -1
          }
          dim {
            size: 2
          }
        }
      }
    }
  }
  attr {
    key: "axis"
    value {
      i: -1
    }
  }
}
node {
  name: "dnn/input_from_feature_columns/input_layer/beta_indicator/Sum/reduction_indices"
  op: "Const"
  attr {
    key: "_output_shapes"
    value {
      list {
        shape {
          dim {
            size: 1
          }
        }
      }
    }
  }
  attr {
    key: "dtype"
    value {
      type: DT_INT32
    }
  }
  attr {
    key: "value"
    value {
      tensor {
        dtype: DT_INT32
        tensor_shape {
          dim {
            size: 1
          }
        }
        int_val: 1
      }
    }
  }
}
node {
  name: "dnn/input_from_feature_columns/input_layer/beta_indicator/Sum"
  op: "Sum"
  input: "dnn/input_from_feature_columns/input_layer/beta_indicator/one_hot"
  input: "dnn/input_from_feature_columns/input_layer/beta_indicator/Sum/reduction_indices"
  attr {
    key: "T"
    value {
      type: DT_FLOAT
    }
  }
  attr {
    key: "Tidx"
    value {
      type: DT_INT32
    }
  }
  attr {
    key: "_output_shapes"
    value {
      list {
        shape {
          dim {
            size: -1
          }
          dim {
            size: 2
          }
        }
      }
    }
  }
  attr {
    key: "keep_dims"
    value {
      b: false
    }
  }
}
node {
  name: "dnn/input_from_feature_columns/input_layer/beta_indicator/Shape"
  op: "Shape"
  input: "dnn/input_from_feature_columns/input_layer/beta_indicator/Sum"
  attr {
    key: "T"
    value {
      type: DT_FLOAT
    }
  }
  attr {
    key: "_output_shapes"
    value {
      list {
        shape {
          dim {
            size: 2
          }
        }
      }
    }
  }
  attr {
    key: "out_type"
    value {
      type: DT_INT32
    }
  }
}
node {
  name: "dnn/input_from_feature_columns/input_layer/beta_indicator/strided_slice/stack"
  op: "Const"
  attr {
    key: "_output_shapes"
    value {
      list {
        shape {
          dim {
            size: 1
          }
        }
      }
    }
  }
  attr {
    key: "dtype"
    value {
      type: DT_INT32
    }
  }
  attr {
    key: "value"
    value {
      tensor {
        dtype: DT_INT32
        tensor_shape {
          dim {
            size: 1
          }
        }
        int_val: 0
      }
    }
  }
}
node {
  name: "dnn/input_from_feature_columns/input_layer/beta_indicator/strided_slice/stack_1"
  op: "Const"
  attr {
    key: "_output_shapes"
    value {
      list {
        shape {
          dim {
            size: 1
          }
        }
      }
    }
  }
  attr {
    key: "dtype"
    value {
      type: DT_INT32
    }
  }
  attr {
    key: "value"
    value {
      tensor {
        dtype: DT_INT32
        tensor_shape {
          dim {
            size: 1
          }
        }
        int_val: 1
      }
    }
  }
}
node {
  name: "dnn/input_from_feature_columns/input_layer/beta_indicator/strided_slice/stack_2"
  op: "Const"
  attr {
    key: "_output_shapes"
    value {
      list {
        shape {
          dim {
            size: 1
          }
        }
      }
    }
  }
  attr {
    key: "dtype"
    value {
      type: DT_INT32
    }
  }
  attr {
    key: "value"
    value {
      tensor {
        dtype: DT_INT32
        tensor_shape {
          dim {
            size: 1
          }
        }
        int_val: 1
      }
    }
  }
}
node {
  name: "dnn/input_from_feature_columns/input_layer/beta_indicator/strided_slice"
  op: "StridedSlice"
  input: "dnn/input_from_feature_columns/input_layer/beta_indicator/Shape"
  input: "dnn/input_from_feature_columns/input_layer/beta_indicator/strided_slice/stack"
  input: "dnn/input_from_feature_columns/input_layer/beta_indicator/strided_slice/stack_1"
  input: "dnn/input_from_feature_columns/input_layer/beta_indicator/strided_slice/stack_2"
  attr {
    key: "Index"
    value {
      type: DT_INT32
    }
  }
  attr {
    key: "T"
    value {
      type: DT_INT32
    }
  }
  attr {
    key: "_output_shapes"
    value {
      list {
        shape {
        }
      }
    }
  }
  attr {
    key: "begin_mask"
    value {
      i: 0
    }
  }
  attr {
    key: "ellipsis_mask"
    value {
      i: 0
    }
  }
  attr {
    key: "end_mask"
    value {
      i: 0
    }
  }
  attr {
    key: "new_axis_mask"
    value {
      i: 0
    }
  }
  attr {
    key: "shrink_axis_mask"
    value {
      i: 1
    }
  }
}
node {
  name: "dnn/input_from_feature_columns/input_layer/beta_indicator/Reshape/shape/1"
  op: "Const"
  attr {
    key: "_output_shapes"
    value {
      list {
        shape {
        }
      }
    }
  }
  attr {
    key: "dtype"
    value {
      type: DT_INT32
    }
  }
  attr {
    key: "value"
    value {
      tensor {
        dtype: DT_INT32
        tensor_shape {
        }
        int_val: 2
      }
    }
  }
}
node {
  name: "dnn/input_from_feature_columns/input_layer/beta_indicator/Reshape/shape"
  op: "Pack"
  input: "dnn/input_from_feature_columns/input_layer/beta_indicator/strided_slice"
  input: "dnn/input_from_feature_columns/input_layer/beta_indicator/Reshape/shape/1"
  attr {
    key: "N"
    value {
      i: 2
    }
  }
  attr {
    key: "T"
    value {
      type: DT_INT32
    }
  }
  attr {
    key: "_output_shapes"
    value {
      list {
        shape {
          dim {
            size: 2
          }
        }
      }
    }
  }
  attr {
    key: "axis"
    value {
      i: 0
    }
  }
}
node {
  name: "dnn/input_from_feature_columns/input_layer/beta_indicator/Reshape"
  op: "Reshape"
  input: "dnn/input_from_feature_columns/input_layer/beta_indicator/Sum"
  input: "dnn/input_from_feature_columns/input_layer/beta_indicator/Reshape/shape"
  attr {
    key: "T"
    value {
      type: DT_FLOAT
    }
  }
  attr {
    key: "Tshape"
    value {
      type: DT_INT32
    }
  }
  attr {
    key: "_output_shapes"
    value {
      list {
        shape {
          dim {
            size: -1
          }
          dim {
            size: 2
          }
        }
      }
    }
  }
}
node {
  name: "dnn/input_from_feature_columns/input_layer/x/Shape"
  op: "Shape"
  input: "shuffle_batch:3"
  attr {
    key: "T"
    value {
      type: DT_FLOAT
    }
  }
  attr {
    key: "_output_shapes"
    value {
      list {
        shape {
          dim {
            size: 2
          }
        }
      }
    }
  }
  attr {
    key: "out_type"
    value {
      type: DT_INT32
    }
  }
}
node {
  name: "dnn/input_from_feature_columns/input_layer/x/strided_slice/stack"
  op: "Const"
  attr {
    key: "_output_shapes"
    value {
      list {
        shape {
          dim {
            size: 1
          }
        }
      }
    }
  }
  attr {
    key: "dtype"
    value {
      type: DT_INT32
    }
  }
  attr {
    key: "value"
    value {
      tensor {
        dtype: DT_INT32
        tensor_shape {
          dim {
            size: 1
          }
        }
        int_val: 0
      }
    }
  }
}
node {
  name: "dnn/input_from_feature_columns/input_layer/x/strided_slice/stack_1"
  op: "Const"
  attr {
    key: "_output_shapes"
    value {
      list {
        shape {
          dim {
            size: 1
          }
        }
      }
    }
  }
  attr {
    key: "dtype"
    value {
      type: DT_INT32
    }
  }
  attr {
    key: "value"
    value {
      tensor {
        dtype: DT_INT32
        tensor_shape {
          dim {
            size: 1
          }
        }
        int_val: 1
      }
    }
  }
}
node {
  name: "dnn/input_from_feature_columns/input_layer/x/strided_slice/stack_2"
  op: "Const"
  attr {
    key: "_output_shapes"
    value {
      list {
        shape {
          dim {
            size: 1
          }
        }
      }
    }
  }
  attr {
    key: "dtype"
    value {
      type: DT_INT32
    }
  }
  attr {
    key: "value"
    value {
      tensor {
        dtype: DT_INT32
        tensor_shape {
          dim {
            size: 1
          }
        }
        int_val: 1
      }
    }
  }
}
node {
  name: "dnn/input_from_feature_columns/input_layer/x/strided_slice"
  op: "StridedSlice"
  input: "dnn/input_from_feature_columns/input_layer/x/Shape"
  input: "dnn/input_from_feature_columns/input_layer/x/strided_slice/stack"
  input: "dnn/input_from_feature_columns/input_layer/x/strided_slice/stack_1"
  input: "dnn/input_from_feature_columns/input_layer/x/strided_slice/stack_2"
  attr {
    key: "Index"
    value {
      type: DT_INT32
    }
  }
  attr {
    key: "T"
    value {
      type: DT_INT32
    }
  }
  attr {
    key: "_output_shapes"
    value {
      list {
        shape {
        }
      }
    }
  }
  attr {
    key: "begin_mask"
    value {
      i: 0
    }
  }
  attr {
    key: "ellipsis_mask"
    value {
      i: 0
    }
  }
  attr {
    key: "end_mask"
    value {
      i: 0
    }
  }
  attr {
    key: "new_axis_mask"
    value {
      i: 0
    }
  }
  attr {
    key: "shrink_axis_mask"
    value {
      i: 1
    }
  }
}
node {
  name: "dnn/input_from_feature_columns/input_layer/x/Reshape/shape/1"
  op: "Const"
  attr {
    key: "_output_shapes"
    value {
      list {
        shape {
        }
      }
    }
  }
  attr {
    key: "dtype"
    value {
      type: DT_INT32
    }
  }
  attr {
    key: "value"
    value {
      tensor {
        dtype: DT_INT32
        tensor_shape {
        }
        int_val: 1
      }
    }
  }
}
node {
  name: "dnn/input_from_feature_columns/input_layer/x/Reshape/shape"
  op: "Pack"
  input: "dnn/input_from_feature_columns/input_layer/x/strided_slice"
  input: "dnn/input_from_feature_columns/input_layer/x/Reshape/shape/1"
  attr {
    key: "N"
    value {
      i: 2
    }
  }
  attr {
    key: "T"
    value {
      type: DT_INT32
    }
  }
  attr {
    key: "_output_shapes"
    value {
      list {
        shape {
          dim {
            size: 2
          }
        }
      }
    }
  }
  attr {
    key: "axis"
    value {
      i: 0
    }
  }
}
node {
  name: "dnn/input_from_feature_columns/input_layer/x/Reshape"
  op: "Reshape"
  input: "shuffle_batch:3"
  input: "dnn/input_from_feature_columns/input_layer/x/Reshape/shape"
  attr {
    key: "T"
    value {
      type: DT_FLOAT
    }
  }
  attr {
    key: "Tshape"
    value {
      type: DT_INT32
    }
  }
  attr {
    key: "_output_shapes"
    value {
      list {
        shape {
          dim {
            size: -1
          }
          dim {
            size: 1
          }
        }
      }
    }
  }
}
node {
  name: "dnn/input_from_feature_columns/input_layer/y/Shape"
  op: "Shape"
  input: "shuffle_batch:4"
  attr {
    key: "T"
    value {
      type: DT_FLOAT
    }
  }
  attr {
    key: "_output_shapes"
    value {
      list {
        shape {
          dim {
            size: 2
          }
        }
      }
    }
  }
  attr {
    key: "out_type"
    value {
      type: DT_INT32
    }
  }
}
node {
  name: "dnn/input_from_feature_columns/input_layer/y/strided_slice/stack"
  op: "Const"
  attr {
    key: "_output_shapes"
    value {
      list {
        shape {
          dim {
            size: 1
          }
        }
      }
    }
  }
  attr {
    key: "dtype"
    value {
      type: DT_INT32
    }
  }
  attr {
    key: "value"
    value {
      tensor {
        dtype: DT_INT32
        tensor_shape {
          dim {
            size: 1
          }
        }
        int_val: 0
      }
    }
  }
}
node {
  name: "dnn/input_from_feature_columns/input_layer/y/strided_slice/stack_1"
  op: "Const"
  attr {
    key: "_output_shapes"
    value {
      list {
        shape {
          dim {
            size: 1
          }
        }
      }
    }
  }
  attr {
    key: "dtype"
    value {
      type: DT_INT32
    }
  }
  attr {
    key: "value"
    value {
      tensor {
        dtype: DT_INT32
        tensor_shape {
          dim {
            size: 1
          }
        }
        int_val: 1
      }
    }
  }
}
node {
  name: "dnn/input_from_feature_columns/input_layer/y/strided_slice/stack_2"
  op: "Const"
  attr {
    key: "_output_shapes"
    value {
      list {
        shape {
          dim {
            size: 1
          }
        }
      }
    }
  }
  attr {
    key: "dtype"
    value {
      type: DT_INT32
    }
  }
  attr {
    key: "value"
    value {
      tensor {
        dtype: DT_INT32
        tensor_shape {
          dim {
            size: 1
          }
        }
        int_val: 1
      }
    }
  }
}
node {
  name: "dnn/input_from_feature_columns/input_layer/y/strided_slice"
  op: "StridedSlice"
  input: "dnn/input_from_feature_columns/input_layer/y/Shape"
  input: "dnn/input_from_feature_columns/input_layer/y/strided_slice/stack"
  input: "dnn/input_from_feature_columns/input_layer/y/strided_slice/stack_1"
  input: "dnn/input_from_feature_columns/input_layer/y/strided_slice/stack_2"
  attr {
    key: "Index"
    value {
      type: DT_INT32
    }
  }
  attr {
    key: "T"
    value {
      type: DT_INT32
    }
  }
  attr {
    key: "_output_shapes"
    value {
      list {
        shape {
        }
      }
    }
  }
  attr {
    key: "begin_mask"
    value {
      i: 0
    }
  }
  attr {
    key: "ellipsis_mask"
    value {
      i: 0
    }
  }
  attr {
    key: "end_mask"
    value {
      i: 0
    }
  }
  attr {
    key: "new_axis_mask"
    value {
      i: 0
    }
  }
  attr {
    key: "shrink_axis_mask"
    value {
      i: 1
    }
  }
}
node {
  name: "dnn/input_from_feature_columns/input_layer/y/Reshape/shape/1"
  op: "Const"
  attr {
    key: "_output_shapes"
    value {
      list {
        shape {
        }
      }
    }
  }
  attr {
    key: "dtype"
    value {
      type: DT_INT32
    }
  }
  attr {
    key: "value"
    value {
      tensor {
        dtype: DT_INT32
        tensor_shape {
        }
        int_val: 1
      }
    }
  }
}
node {
  name: "dnn/input_from_feature_columns/input_layer/y/Reshape/shape"
  op: "Pack"
  input: "dnn/input_from_feature_columns/input_layer/y/strided_slice"
  input: "dnn/input_from_feature_columns/input_layer/y/Reshape/shape/1"
  attr {
    key: "N"
    value {
      i: 2
    }
  }
  attr {
    key: "T"
    value {
      type: DT_INT32
    }
  }
  attr {
    key: "_output_shapes"
    value {
      list {
        shape {
          dim {
            size: 2
          }
        }
      }
    }
  }
  attr {
    key: "axis"
    value {
      i: 0
    }
  }
}
node {
  name: "dnn/input_from_feature_columns/input_layer/y/Reshape"
  op: "Reshape"
  input: "shuffle_batch:4"
  input: "dnn/input_from_feature_columns/input_layer/y/Reshape/shape"
  attr {
    key: "T"
    value {
      type: DT_FLOAT
    }
  }
  attr {
    key: "Tshape"
    value {
      type: DT_INT32
    }
  }
  attr {
    key: "_output_shapes"
    value {
      list {
        shape {
          dim {
            size: -1
          }
          dim {
            size: 1
          }
        }
      }
    }
  }
}
node {
  name: "dnn/input_from_feature_columns/input_layer/concat/axis"
  op: "Const"
  attr {
    key: "_output_shapes"
    value {
      list {
        shape {
        }
      }
    }
  }
  attr {
    key: "dtype"
    value {
      type: DT_INT32
    }
  }
  attr {
    key: "value"
    value {
      tensor {
        dtype: DT_INT32
        tensor_shape {
        }
        int_val: 1
      }
    }
  }
}
node {
  name: "dnn/input_from_feature_columns/input_layer/concat"
  op: "ConcatV2"
  input: "dnn/input_from_feature_columns/input_layer/alpha_indicator/Reshape"
  input: "dnn/input_from_feature_columns/input_layer/beta_indicator/Reshape"
  input: "dnn/input_from_feature_columns/input_layer/x/Reshape"
  input: "dnn/input_from_feature_columns/input_layer/y/Reshape"
  input: "dnn/input_from_feature_columns/input_layer/concat/axis"
  attr {
    key: "N"
    value {
      i: 4
    }
  }
  attr {
    key: "T"
    value {
      type: DT_FLOAT
    }
  }
  attr {
    key: "Tidx"
    value {
      type: DT_INT32
    }
  }
  attr {
    key: "_output_shapes"
    value {
      list {
        shape {
          dim {
            size: -1
          }
          dim {
            size: 6
          }
        }
      }
    }
  }
}
node {
  name: "dnn/hiddenlayer_0/weights/part_0/Initializer/random_uniform/shape"
  op: "Const"
  attr {
    key: "_class"
    value {
      list {
        s: "loc:@dnn/hiddenlayer_0/weights/part_0"
      }
    }
  }
  attr {
    key: "_output_shapes"
    value {
      list {
        shape {
          dim {
            size: 2
          }
        }
      }
    }
  }
  attr {
    key: "dtype"
    value {
      type: DT_INT32
    }
  }
  attr {
    key: "value"
    value {
      tensor {
        dtype: DT_INT32
        tensor_shape {
          dim {
            size: 2
          }
        }
        tensor_content: "\006\000\000\000\200\000\000\000"
      }
    }
  }
}
node {
  name: "dnn/hiddenlayer_0/weights/part_0/Initializer/random_uniform/min"
  op: "Const"
  attr {
    key: "_class"
    value {
      list {
        s: "loc:@dnn/hiddenlayer_0/weights/part_0"
      }
    }
  }
  attr {
    key: "_output_shapes"
    value {
      list {
        shape {
        }
      }
    }
  }
  attr {
    key: "dtype"
    value {
      type: DT_FLOAT
    }
  }
  attr {
    key: "value"
    value {
      tensor {
        dtype: DT_FLOAT
        tensor_shape {
        }
        float_val: -0.211603686213
      }
    }
  }
}
node {
  name: "dnn/hiddenlayer_0/weights/part_0/Initializer/random_uniform/max"
  op: "Const"
  attr {
    key: "_class"
    value {
      list {
        s: "loc:@dnn/hiddenlayer_0/weights/part_0"
      }
    }
  }
  attr {
    key: "_output_shapes"
    value {
      list {
        shape {
        }
      }
    }
  }
  attr {
    key: "dtype"
    value {
      type: DT_FLOAT
    }
  }
  attr {
    key: "value"
    value {
      tensor {
        dtype: DT_FLOAT
        tensor_shape {
        }
        float_val: 0.211603686213
      }
    }
  }
}
node {
  name: "dnn/hiddenlayer_0/weights/part_0/Initializer/random_uniform/RandomUniform"
  op: "RandomUniform"
  input: "dnn/hiddenlayer_0/weights/part_0/Initializer/random_uniform/shape"
  attr {
    key: "T"
    value {
      type: DT_INT32
    }
  }
  attr {
    key: "_class"
    value {
      list {
        s: "loc:@dnn/hiddenlayer_0/weights/part_0"
      }
    }
  }
  attr {
    key: "_output_shapes"
    value {
      list {
        shape {
          dim {
            size: 6
          }
          dim {
            size: 128
          }
        }
      }
    }
  }
  attr {
    key: "dtype"
    value {
      type: DT_FLOAT
    }
  }
  attr {
    key: "seed"
    value {
      i: 0
    }
  }
  attr {
    key: "seed2"
    value {
      i: 0
    }
  }
}
node {
  name: "dnn/hiddenlayer_0/weights/part_0/Initializer/random_uniform/sub"
  op: "Sub"
  input: "dnn/hiddenlayer_0/weights/part_0/Initializer/random_uniform/max"
  input: "dnn/hiddenlayer_0/weights/part_0/Initializer/random_uniform/min"
  attr {
    key: "T"
    value {
      type: DT_FLOAT
    }
  }
  attr {
    key: "_class"
    value {
      list {
        s: "loc:@dnn/hiddenlayer_0/weights/part_0"
      }
    }
  }
  attr {
    key: "_output_shapes"
    value {
      list {
        shape {
        }
      }
    }
  }
}
node {
  name: "dnn/hiddenlayer_0/weights/part_0/Initializer/random_uniform/mul"
  op: "Mul"
  input: "dnn/hiddenlayer_0/weights/part_0/Initializer/random_uniform/RandomUniform"
  input: "dnn/hiddenlayer_0/weights/part_0/Initializer/random_uniform/sub"
  attr {
    key: "T"
    value {
      type: DT_FLOAT
    }
  }
  attr {
    key: "_class"
    value {
      list {
        s: "loc:@dnn/hiddenlayer_0/weights/part_0"
      }
    }
  }
  attr {
    key: "_output_shapes"
    value {
      list {
        shape {
          dim {
            size: 6
          }
          dim {
            size: 128
          }
        }
      }
    }
  }
}
node {
  name: "dnn/hiddenlayer_0/weights/part_0/Initializer/random_uniform"
  op: "Add"
  input: "dnn/hiddenlayer_0/weights/part_0/Initializer/random_uniform/mul"
  input: "dnn/hiddenlayer_0/weights/part_0/Initializer/random_uniform/min"
  attr {
    key: "T"
    value {
      type: DT_FLOAT
    }
  }
  attr {
    key: "_class"
    value {
      list {
        s: "loc:@dnn/hiddenlayer_0/weights/part_0"
      }
    }
  }
  attr {
    key: "_output_shapes"
    value {
      list {
        shape {
          dim {
            size: 6
          }
          dim {
            size: 128
          }
        }
      }
    }
  }
}
node {
  name: "dnn/hiddenlayer_0/weights/part_0"
  op: "VariableV2"
  attr {
    key: "_class"
    value {
      list {
        s: "loc:@dnn/hiddenlayer_0/weights/part_0"
      }
    }
  }
  attr {
    key: "_output_shapes"
    value {
      list {
        shape {
          dim {
            size: 6
          }
          dim {
            size: 128
          }
        }
      }
    }
  }
  attr {
    key: "container"
    value {
      s: ""
    }
  }
  attr {
    key: "dtype"
    value {
      type: DT_FLOAT
    }
  }
  attr {
    key: "shape"
    value {
      shape {
        dim {
          size: 6
        }
        dim {
          size: 128
        }
      }
    }
  }
  attr {
    key: "shared_name"
    value {
      s: ""
    }
  }
}
node {
  name: "dnn/hiddenlayer_0/weights/part_0/Assign"
  op: "Assign"
  input: "dnn/hiddenlayer_0/weights/part_0"
  input: "dnn/hiddenlayer_0/weights/part_0/Initializer/random_uniform"
  attr {
    key: "T"
    value {
      type: DT_FLOAT
    }
  }
  attr {
    key: "_class"
    value {
      list {
        s: "loc:@dnn/hiddenlayer_0/weights/part_0"
      }
    }
  }
  attr {
    key: "_output_shapes"
    value {
      list {
        shape {
          dim {
            size: 6
          }
          dim {
            size: 128
          }
        }
      }
    }
  }
  attr {
    key: "use_locking"
    value {
      b: true
    }
  }
  attr {
    key: "validate_shape"
    value {
      b: true
    }
  }
}
node {
  name: "dnn/hiddenlayer_0/weights/part_0/read"
  op: "Identity"
  input: "dnn/hiddenlayer_0/weights/part_0"
  attr {
    key: "T"
    value {
      type: DT_FLOAT
    }
  }
  attr {
    key: "_class"
    value {
      list {
        s: "loc:@dnn/hiddenlayer_0/weights/part_0"
      }
    }
  }
  attr {
    key: "_output_shapes"
    value {
      list {
        shape {
          dim {
            size: 6
          }
          dim {
            size: 128
          }
        }
      }
    }
  }
}
node {
  name: "dnn/hiddenlayer_0/biases/part_0/Initializer/zeros"
  op: "Const"
  attr {
    key: "_class"
    value {
      list {
        s: "loc:@dnn/hiddenlayer_0/biases/part_0"
      }
    }
  }
  attr {
    key: "_output_shapes"
    value {
      list {
        shape {
          dim {
            size: 128
          }
        }
      }
    }
  }
  attr {
    key: "dtype"
    value {
      type: DT_FLOAT
    }
  }
  attr {
    key: "value"
    value {
      tensor {
        dtype: DT_FLOAT
        tensor_shape {
          dim {
            size: 128
          }
        }
        float_val: 0.0
      }
    }
  }
}
node {
  name: "dnn/hiddenlayer_0/biases/part_0"
  op: "VariableV2"
  attr {
    key: "_class"
    value {
      list {
        s: "loc:@dnn/hiddenlayer_0/biases/part_0"
      }
    }
  }
  attr {
    key: "_output_shapes"
    value {
      list {
        shape {
          dim {
            size: 128
          }
        }
      }
    }
  }
  attr {
    key: "container"
    value {
      s: ""
    }
  }
  attr {
    key: "dtype"
    value {
      type: DT_FLOAT
    }
  }
  attr {
    key: "shape"
    value {
      shape {
        dim {
          size: 128
        }
      }
    }
  }
  attr {
    key: "shared_name"
    value {
      s: ""
    }
  }
}
node {
  name: "dnn/hiddenlayer_0/biases/part_0/Assign"
  op: "Assign"
  input: "dnn/hiddenlayer_0/biases/part_0"
  input: "dnn/hiddenlayer_0/biases/part_0/Initializer/zeros"
  attr {
    key: "T"
    value {
      type: DT_FLOAT
    }
  }
  attr {
    key: "_class"
    value {
      list {
        s: "loc:@dnn/hiddenlayer_0/biases/part_0"
      }
    }
  }
  attr {
    key: "_output_shapes"
    value {
      list {
        shape {
          dim {
            size: 128
          }
        }
      }
    }
  }
  attr {
    key: "use_locking"
    value {
      b: true
    }
  }
  attr {
    key: "validate_shape"
    value {
      b: true
    }
  }
}
node {
  name: "dnn/hiddenlayer_0/biases/part_0/read"
  op: "Identity"
  input: "dnn/hiddenlayer_0/biases/part_0"
  attr {
    key: "T"
    value {
      type: DT_FLOAT
    }
  }
  attr {
    key: "_class"
    value {
      list {
        s: "loc:@dnn/hiddenlayer_0/biases/part_0"
      }
    }
  }
  attr {
    key: "_output_shapes"
    value {
      list {
        shape {
          dim {
            size: 128
          }
        }
      }
    }
  }
}
node {
  name: "dnn/hiddenlayer_0/weights"
  op: "Identity"
  input: "dnn/hiddenlayer_0/weights/part_0/read"
  attr {
    key: "T"
    value {
      type: DT_FLOAT
    }
  }
  attr {
    key: "_output_shapes"
    value {
      list {
        shape {
          dim {
            size: 6
          }
          dim {
            size: 128
          }
        }
      }
    }
  }
}
node {
  name: "dnn/hiddenlayer_0/MatMul"
  op: "MatMul"
  input: "dnn/input_from_feature_columns/input_layer/concat"
  input: "dnn/hiddenlayer_0/weights"
  attr {
    key: "T"
    value {
      type: DT_FLOAT
    }
  }
  attr {
    key: "_output_shapes"
    value {
      list {
        shape {
          dim {
            size: -1
          }
          dim {
            size: 128
          }
        }
      }
    }
  }
  attr {
    key: "transpose_a"
    value {
      b: false
    }
  }
  attr {
    key: "transpose_b"
    value {
      b: false
    }
  }
}
node {
  name: "dnn/hiddenlayer_0/biases"
  op: "Identity"
  input: "dnn/hiddenlayer_0/biases/part_0/read"
  attr {
    key: "T"
    value {
      type: DT_FLOAT
    }
  }
  attr {
    key: "_output_shapes"
    value {
      list {
        shape {
          dim {
            size: 128
          }
        }
      }
    }
  }
}
node {
  name: "dnn/hiddenlayer_0/BiasAdd"
  op: "BiasAdd"
  input: "dnn/hiddenlayer_0/MatMul"
  input: "dnn/hiddenlayer_0/biases"
  attr {
    key: "T"
    value {
      type: DT_FLOAT
    }
  }
  attr {
    key: "_output_shapes"
    value {
      list {
        shape {
          dim {
            size: -1
          }
          dim {
            size: 128
          }
        }
      }
    }
  }
  attr {
    key: "data_format"
    value {
      s: "NHWC"
    }
  }
}
node {
  name: "dnn/hiddenlayer_0/hiddenlayer_0/Relu"
  op: "Relu"
  input: "dnn/hiddenlayer_0/BiasAdd"
  attr {
    key: "T"
    value {
      type: DT_FLOAT
    }
  }
  attr {
    key: "_output_shapes"
    value {
      list {
        shape {
          dim {
            size: -1
          }
          dim {
            size: 128
          }
        }
      }
    }
  }
}
node {
  name: "dnn/zero_fraction/zero"
  op: "Const"
  attr {
    key: "_output_shapes"
    value {
      list {
        shape {
        }
      }
    }
  }
  attr {
    key: "dtype"
    value {
      type: DT_FLOAT
    }
  }
  attr {
    key: "value"
    value {
      tensor {
        dtype: DT_FLOAT
        tensor_shape {
        }
        float_val: 0.0
      }
    }
  }
}
node {
  name: "dnn/zero_fraction/Equal"
  op: "Equal"
  input: "dnn/hiddenlayer_0/hiddenlayer_0/Relu"
  input: "dnn/zero_fraction/zero"
  attr {
    key: "T"
    value {
      type: DT_FLOAT
    }
  }
  attr {
    key: "_output_shapes"
    value {
      list {
        shape {
          dim {
            size: -1
          }
          dim {
            size: 128
          }
        }
      }
    }
  }
}
node {
  name: "dnn/zero_fraction/Cast"
  op: "Cast"
  input: "dnn/zero_fraction/Equal"
  attr {
    key: "DstT"
    value {
      type: DT_FLOAT
    }
  }
  attr {
    key: "SrcT"
    value {
      type: DT_BOOL
    }
  }
  attr {
    key: "_output_shapes"
    value {
      list {
        shape {
          dim {
            size: -1
          }
          dim {
            size: 128
          }
        }
      }
    }
  }
}
node {
  name: "dnn/zero_fraction/Const"
  op: "Const"
  attr {
    key: "_output_shapes"
    value {
      list {
        shape {
          dim {
            size: 2
          }
        }
      }
    }
  }
  attr {
    key: "dtype"
    value {
      type: DT_INT32
    }
  }
  attr {
    key: "value"
    value {
      tensor {
        dtype: DT_INT32
        tensor_shape {
          dim {
            size: 2
          }
        }
        tensor_content: "\000\000\000\000\001\000\000\000"
      }
    }
  }
}
node {
  name: "dnn/zero_fraction/Mean"
  op: "Mean"
  input: "dnn/zero_fraction/Cast"
  input: "dnn/zero_fraction/Const"
  attr {
    key: "T"
    value {
      type: DT_FLOAT
    }
  }
  attr {
    key: "Tidx"
    value {
      type: DT_INT32
    }
  }
  attr {
    key: "_output_shapes"
    value {
      list {
        shape {
        }
      }
    }
  }
  attr {
    key: "keep_dims"
    value {
      b: false
    }
  }
}
node {
  name: "dnn/dnn/hiddenlayer_0/fraction_of_zero_values/tags"
  op: "Const"
  attr {
    key: "_output_shapes"
    value {
      list {
        shape {
        }
      }
    }
  }
  attr {
    key: "dtype"
    value {
      type: DT_STRING
    }
  }
  attr {
    key: "value"
    value {
      tensor {
        dtype: DT_STRING
        tensor_shape {
        }
        string_val: "dnn/dnn/hiddenlayer_0/fraction_of_zero_values"
      }
    }
  }
}
node {
  name: "dnn/dnn/hiddenlayer_0/fraction_of_zero_values"
  op: "ScalarSummary"
  input: "dnn/dnn/hiddenlayer_0/fraction_of_zero_values/tags"
  input: "dnn/zero_fraction/Mean"
  attr {
    key: "T"
    value {
      type: DT_FLOAT
    }
  }
  attr {
    key: "_output_shapes"
    value {
      list {
        shape {
        }
      }
    }
  }
}
node {
  name: "dnn/dnn/hiddenlayer_0/activation/tag"
  op: "Const"
  attr {
    key: "_output_shapes"
    value {
      list {
        shape {
        }
      }
    }
  }
  attr {
    key: "dtype"
    value {
      type: DT_STRING
    }
  }
  attr {
    key: "value"
    value {
      tensor {
        dtype: DT_STRING
        tensor_shape {
        }
        string_val: "dnn/dnn/hiddenlayer_0/activation"
      }
    }
  }
}
node {
  name: "dnn/dnn/hiddenlayer_0/activation"
  op: "HistogramSummary"
  input: "dnn/dnn/hiddenlayer_0/activation/tag"
  input: "dnn/hiddenlayer_0/hiddenlayer_0/Relu"
  attr {
    key: "T"
    value {
      type: DT_FLOAT
    }
  }
  attr {
    key: "_output_shapes"
    value {
      list {
        shape {
        }
      }
    }
  }
}
node {
  name: "dnn/hiddenlayer_1/weights/part_0/Initializer/random_uniform/shape"
  op: "Const"
  attr {
    key: "_class"
    value {
      list {
        s: "loc:@dnn/hiddenlayer_1/weights/part_0"
      }
    }
  }
  attr {
    key: "_output_shapes"
    value {
      list {
        shape {
          dim {
            size: 2
          }
        }
      }
    }
  }
  attr {
    key: "dtype"
    value {
      type: DT_INT32
    }
  }
  attr {
    key: "value"
    value {
      tensor {
        dtype: DT_INT32
        tensor_shape {
          dim {
            size: 2
          }
        }
        tensor_content: "\200\000\000\000@\000\000\000"
      }
    }
  }
}
node {
  name: "dnn/hiddenlayer_1/weights/part_0/Initializer/random_uniform/min"
  op: "Const"
  attr {
    key: "_class"
    value {
      list {
        s: "loc:@dnn/hiddenlayer_1/weights/part_0"
      }
    }
  }
  attr {
    key: "_output_shapes"
    value {
      list {
        shape {
        }
      }
    }
  }
  attr {
    key: "dtype"
    value {
      type: DT_FLOAT
    }
  }
  attr {
    key: "value"
    value {
      tensor {
        dtype: DT_FLOAT
        tensor_shape {
        }
        float_val: -0.176776692271
      }
    }
  }
}
node {
  name: "dnn/hiddenlayer_1/weights/part_0/Initializer/random_uniform/max"
  op: "Const"
  attr {
    key: "_class"
    value {
      list {
        s: "loc:@dnn/hiddenlayer_1/weights/part_0"
      }
    }
  }
  attr {
    key: "_output_shapes"
    value {
      list {
        shape {
        }
      }
    }
  }
  attr {
    key: "dtype"
    value {
      type: DT_FLOAT
    }
  }
  attr {
    key: "value"
    value {
      tensor {
        dtype: DT_FLOAT
        tensor_shape {
        }
        float_val: 0.176776692271
      }
    }
  }
}
node {
  name: "dnn/hiddenlayer_1/weights/part_0/Initializer/random_uniform/RandomUniform"
  op: "RandomUniform"
  input: "dnn/hiddenlayer_1/weights/part_0/Initializer/random_uniform/shape"
  attr {
    key: "T"
    value {
      type: DT_INT32
    }
  }
  attr {
    key: "_class"
    value {
      list {
        s: "loc:@dnn/hiddenlayer_1/weights/part_0"
      }
    }
  }
  attr {
    key: "_output_shapes"
    value {
      list {
        shape {
          dim {
            size: 128
          }
          dim {
            size: 64
          }
        }
      }
    }
  }
  attr {
    key: "dtype"
    value {
      type: DT_FLOAT
    }
  }
  attr {
    key: "seed"
    value {
      i: 0
    }
  }
  attr {
    key: "seed2"
    value {
      i: 0
    }
  }
}
node {
  name: "dnn/hiddenlayer_1/weights/part_0/Initializer/random_uniform/sub"
  op: "Sub"
  input: "dnn/hiddenlayer_1/weights/part_0/Initializer/random_uniform/max"
  input: "dnn/hiddenlayer_1/weights/part_0/Initializer/random_uniform/min"
  attr {
    key: "T"
    value {
      type: DT_FLOAT
    }
  }
  attr {
    key: "_class"
    value {
      list {
        s: "loc:@dnn/hiddenlayer_1/weights/part_0"
      }
    }
  }
  attr {
    key: "_output_shapes"
    value {
      list {
        shape {
        }
      }
    }
  }
}
node {
  name: "dnn/hiddenlayer_1/weights/part_0/Initializer/random_uniform/mul"
  op: "Mul"
  input: "dnn/hiddenlayer_1/weights/part_0/Initializer/random_uniform/RandomUniform"
  input: "dnn/hiddenlayer_1/weights/part_0/Initializer/random_uniform/sub"
  attr {
    key: "T"
    value {
      type: DT_FLOAT
    }
  }
  attr {
    key: "_class"
    value {
      list {
        s: "loc:@dnn/hiddenlayer_1/weights/part_0"
      }
    }
  }
  attr {
    key: "_output_shapes"
    value {
      list {
        shape {
          dim {
            size: 128
          }
          dim {
            size: 64
          }
        }
      }
    }
  }
}
node {
  name: "dnn/hiddenlayer_1/weights/part_0/Initializer/random_uniform"
  op: "Add"
  input: "dnn/hiddenlayer_1/weights/part_0/Initializer/random_uniform/mul"
  input: "dnn/hiddenlayer_1/weights/part_0/Initializer/random_uniform/min"
  attr {
    key: "T"
    value {
      type: DT_FLOAT
    }
  }
  attr {
    key: "_class"
    value {
      list {
        s: "loc:@dnn/hiddenlayer_1/weights/part_0"
      }
    }
  }
  attr {
    key: "_output_shapes"
    value {
      list {
        shape {
          dim {
            size: 128
          }
          dim {
            size: 64
          }
        }
      }
    }
  }
}
node {
  name: "dnn/hiddenlayer_1/weights/part_0"
  op: "VariableV2"
  attr {
    key: "_class"
    value {
      list {
        s: "loc:@dnn/hiddenlayer_1/weights/part_0"
      }
    }
  }
  attr {
    key: "_output_shapes"
    value {
      list {
        shape {
          dim {
            size: 128
          }
          dim {
            size: 64
          }
        }
      }
    }
  }
  attr {
    key: "container"
    value {
      s: ""
    }
  }
  attr {
    key: "dtype"
    value {
      type: DT_FLOAT
    }
  }
  attr {
    key: "shape"
    value {
      shape {
        dim {
          size: 128
        }
        dim {
          size: 64
        }
      }
    }
  }
  attr {
    key: "shared_name"
    value {
      s: ""
    }
  }
}
node {
  name: "dnn/hiddenlayer_1/weights/part_0/Assign"
  op: "Assign"
  input: "dnn/hiddenlayer_1/weights/part_0"
  input: "dnn/hiddenlayer_1/weights/part_0/Initializer/random_uniform"
  attr {
    key: "T"
    value {
      type: DT_FLOAT
    }
  }
  attr {
    key: "_class"
    value {
      list {
        s: "loc:@dnn/hiddenlayer_1/weights/part_0"
      }
    }
  }
  attr {
    key: "_output_shapes"
    value {
      list {
        shape {
          dim {
            size: 128
          }
          dim {
            size: 64
          }
        }
      }
    }
  }
  attr {
    key: "use_locking"
    value {
      b: true
    }
  }
  attr {
    key: "validate_shape"
    value {
      b: true
    }
  }
}
node {
  name: "dnn/hiddenlayer_1/weights/part_0/read"
  op: "Identity"
  input: "dnn/hiddenlayer_1/weights/part_0"
  attr {
    key: "T"
    value {
      type: DT_FLOAT
    }
  }
  attr {
    key: "_class"
    value {
      list {
        s: "loc:@dnn/hiddenlayer_1/weights/part_0"
      }
    }
  }
  attr {
    key: "_output_shapes"
    value {
      list {
        shape {
          dim {
            size: 128
          }
          dim {
            size: 64
          }
        }
      }
    }
  }
}
node {
  name: "dnn/hiddenlayer_1/biases/part_0/Initializer/zeros"
  op: "Const"
  attr {
    key: "_class"
    value {
      list {
        s: "loc:@dnn/hiddenlayer_1/biases/part_0"
      }
    }
  }
  attr {
    key: "_output_shapes"
    value {
      list {
        shape {
          dim {
            size: 64
          }
        }
      }
    }
  }
  attr {
    key: "dtype"
    value {
      type: DT_FLOAT
    }
  }
  attr {
    key: "value"
    value {
      tensor {
        dtype: DT_FLOAT
        tensor_shape {
          dim {
            size: 64
          }
        }
        float_val: 0.0
      }
    }
  }
}
node {
  name: "dnn/hiddenlayer_1/biases/part_0"
  op: "VariableV2"
  attr {
    key: "_class"
    value {
      list {
        s: "loc:@dnn/hiddenlayer_1/biases/part_0"
      }
    }
  }
  attr {
    key: "_output_shapes"
    value {
      list {
        shape {
          dim {
            size: 64
          }
        }
      }
    }
  }
  attr {
    key: "container"
    value {
      s: ""
    }
  }
  attr {
    key: "dtype"
    value {
      type: DT_FLOAT
    }
  }
  attr {
    key: "shape"
    value {
      shape {
        dim {
          size: 64
        }
      }
    }
  }
  attr {
    key: "shared_name"
    value {
      s: ""
    }
  }
}
node {
  name: "dnn/hiddenlayer_1/biases/part_0/Assign"
  op: "Assign"
  input: "dnn/hiddenlayer_1/biases/part_0"
  input: "dnn/hiddenlayer_1/biases/part_0/Initializer/zeros"
  attr {
    key: "T"
    value {
      type: DT_FLOAT
    }
  }
  attr {
    key: "_class"
    value {
      list {
        s: "loc:@dnn/hiddenlayer_1/biases/part_0"
      }
    }
  }
  attr {
    key: "_output_shapes"
    value {
      list {
        shape {
          dim {
            size: 64
          }
        }
      }
    }
  }
  attr {
    key: "use_locking"
    value {
      b: true
    }
  }
  attr {
    key: "validate_shape"
    value {
      b: true
    }
  }
}
node {
  name: "dnn/hiddenlayer_1/biases/part_0/read"
  op: "Identity"
  input: "dnn/hiddenlayer_1/biases/part_0"
  attr {
    key: "T"
    value {
      type: DT_FLOAT
    }
  }
  attr {
    key: "_class"
    value {
      list {
        s: "loc:@dnn/hiddenlayer_1/biases/part_0"
      }
    }
  }
  attr {
    key: "_output_shapes"
    value {
      list {
        shape {
          dim {
            size: 64
          }
        }
      }
    }
  }
}
node {
  name: "dnn/hiddenlayer_1/weights"
  op: "Identity"
  input: "dnn/hiddenlayer_1/weights/part_0/read"
  attr {
    key: "T"
    value {
      type: DT_FLOAT
    }
  }
  attr {
    key: "_output_shapes"
    value {
      list {
        shape {
          dim {
            size: 128
          }
          dim {
            size: 64
          }
        }
      }
    }
  }
}
node {
  name: "dnn/hiddenlayer_1/MatMul"
  op: "MatMul"
  input: "dnn/hiddenlayer_0/hiddenlayer_0/Relu"
  input: "dnn/hiddenlayer_1/weights"
  attr {
    key: "T"
    value {
      type: DT_FLOAT
    }
  }
  attr {
    key: "_output_shapes"
    value {
      list {
        shape {
          dim {
            size: -1
          }
          dim {
            size: 64
          }
        }
      }
    }
  }
  attr {
    key: "transpose_a"
    value {
      b: false
    }
  }
  attr {
    key: "transpose_b"
    value {
      b: false
    }
  }
}
node {
  name: "dnn/hiddenlayer_1/biases"
  op: "Identity"
  input: "dnn/hiddenlayer_1/biases/part_0/read"
  attr {
    key: "T"
    value {
      type: DT_FLOAT
    }
  }
  attr {
    key: "_output_shapes"
    value {
      list {
        shape {
          dim {
            size: 64
          }
        }
      }
    }
  }
}
node {
  name: "dnn/hiddenlayer_1/BiasAdd"
  op: "BiasAdd"
  input: "dnn/hiddenlayer_1/MatMul"
  input: "dnn/hiddenlayer_1/biases"
  attr {
    key: "T"
    value {
      type: DT_FLOAT
    }
  }
  attr {
    key: "_output_shapes"
    value {
      list {
        shape {
          dim {
            size: -1
          }
          dim {
            size: 64
          }
        }
      }
    }
  }
  attr {
    key: "data_format"
    value {
      s: "NHWC"
    }
  }
}
node {
  name: "dnn/hiddenlayer_1/hiddenlayer_1/Relu"
  op: "Relu"
  input: "dnn/hiddenlayer_1/BiasAdd"
  attr {
    key: "T"
    value {
      type: DT_FLOAT
    }
  }
  attr {
    key: "_output_shapes"
    value {
      list {
        shape {
          dim {
            size: -1
          }
          dim {
            size: 64
          }
        }
      }
    }
  }
}
node {
  name: "dnn/zero_fraction_1/zero"
  op: "Const"
  attr {
    key: "_output_shapes"
    value {
      list {
        shape {
        }
      }
    }
  }
  attr {
    key: "dtype"
    value {
      type: DT_FLOAT
    }
  }
  attr {
    key: "value"
    value {
      tensor {
        dtype: DT_FLOAT
        tensor_shape {
        }
        float_val: 0.0
      }
    }
  }
}
node {
  name: "dnn/zero_fraction_1/Equal"
  op: "Equal"
  input: "dnn/hiddenlayer_1/hiddenlayer_1/Relu"
  input: "dnn/zero_fraction_1/zero"
  attr {
    key: "T"
    value {
      type: DT_FLOAT
    }
  }
  attr {
    key: "_output_shapes"
    value {
      list {
        shape {
          dim {
            size: -1
          }
          dim {
            size: 64
          }
        }
      }
    }
  }
}
node {
  name: "dnn/zero_fraction_1/Cast"
  op: "Cast"
  input: "dnn/zero_fraction_1/Equal"
  attr {
    key: "DstT"
    value {
      type: DT_FLOAT
    }
  }
  attr {
    key: "SrcT"
    value {
      type: DT_BOOL
    }
  }
  attr {
    key: "_output_shapes"
    value {
      list {
        shape {
          dim {
            size: -1
          }
          dim {
            size: 64
          }
        }
      }
    }
  }
}
node {
  name: "dnn/zero_fraction_1/Const"
  op: "Const"
  attr {
    key: "_output_shapes"
    value {
      list {
        shape {
          dim {
            size: 2
          }
        }
      }
    }
  }
  attr {
    key: "dtype"
    value {
      type: DT_INT32
    }
  }
  attr {
    key: "value"
    value {
      tensor {
        dtype: DT_INT32
        tensor_shape {
          dim {
            size: 2
          }
        }
        tensor_content: "\000\000\000\000\001\000\000\000"
      }
    }
  }
}
node {
  name: "dnn/zero_fraction_1/Mean"
  op: "Mean"
  input: "dnn/zero_fraction_1/Cast"
  input: "dnn/zero_fraction_1/Const"
  attr {
    key: "T"
    value {
      type: DT_FLOAT
    }
  }
  attr {
    key: "Tidx"
    value {
      type: DT_INT32
    }
  }
  attr {
    key: "_output_shapes"
    value {
      list {
        shape {
        }
      }
    }
  }
  attr {
    key: "keep_dims"
    value {
      b: false
    }
  }
}
node {
  name: "dnn/dnn/hiddenlayer_1/fraction_of_zero_values/tags"
  op: "Const"
  attr {
    key: "_output_shapes"
    value {
      list {
        shape {
        }
      }
    }
  }
  attr {
    key: "dtype"
    value {
      type: DT_STRING
    }
  }
  attr {
    key: "value"
    value {
      tensor {
        dtype: DT_STRING
        tensor_shape {
        }
        string_val: "dnn/dnn/hiddenlayer_1/fraction_of_zero_values"
      }
    }
  }
}
node {
  name: "dnn/dnn/hiddenlayer_1/fraction_of_zero_values"
  op: "ScalarSummary"
  input: "dnn/dnn/hiddenlayer_1/fraction_of_zero_values/tags"
  input: "dnn/zero_fraction_1/Mean"
  attr {
    key: "T"
    value {
      type: DT_FLOAT
    }
  }
  attr {
    key: "_output_shapes"
    value {
      list {
        shape {
        }
      }
    }
  }
}
node {
  name: "dnn/dnn/hiddenlayer_1/activation/tag"
  op: "Const"
  attr {
    key: "_output_shapes"
    value {
      list {
        shape {
        }
      }
    }
  }
  attr {
    key: "dtype"
    value {
      type: DT_STRING
    }
  }
  attr {
    key: "value"
    value {
      tensor {
        dtype: DT_STRING
        tensor_shape {
        }
        string_val: "dnn/dnn/hiddenlayer_1/activation"
      }
    }
  }
}
node {
  name: "dnn/dnn/hiddenlayer_1/activation"
  op: "HistogramSummary"
  input: "dnn/dnn/hiddenlayer_1/activation/tag"
  input: "dnn/hiddenlayer_1/hiddenlayer_1/Relu"
  attr {
    key: "T"
    value {
      type: DT_FLOAT
    }
  }
  attr {
    key: "_output_shapes"
    value {
      list {
        shape {
        }
      }
    }
  }
}
node {
  name: "dnn/hiddenlayer_2/weights/part_0/Initializer/random_uniform/shape"
  op: "Const"
  attr {
    key: "_class"
    value {
      list {
        s: "loc:@dnn/hiddenlayer_2/weights/part_0"
      }
    }
  }
  attr {
    key: "_output_shapes"
    value {
      list {
        shape {
          dim {
            size: 2
          }
        }
      }
    }
  }
  attr {
    key: "dtype"
    value {
      type: DT_INT32
    }
  }
  attr {
    key: "value"
    value {
      tensor {
        dtype: DT_INT32
        tensor_shape {
          dim {
            size: 2
          }
        }
        tensor_content: "@\000\000\000 \000\000\000"
      }
    }
  }
}
node {
  name: "dnn/hiddenlayer_2/weights/part_0/Initializer/random_uniform/min"
  op: "Const"
  attr {
    key: "_class"
    value {
      list {
        s: "loc:@dnn/hiddenlayer_2/weights/part_0"
      }
    }
  }
  attr {
    key: "_output_shapes"
    value {
      list {
        shape {
        }
      }
    }
  }
  attr {
    key: "dtype"
    value {
      type: DT_FLOAT
    }
  }
  attr {
    key: "value"
    value {
      tensor {
        dtype: DT_FLOAT
        tensor_shape {
        }
        float_val: -0.25
      }
    }
  }
}
node {
  name: "dnn/hiddenlayer_2/weights/part_0/Initializer/random_uniform/max"
  op: "Const"
  attr {
    key: "_class"
    value {
      list {
        s: "loc:@dnn/hiddenlayer_2/weights/part_0"
      }
    }
  }
  attr {
    key: "_output_shapes"
    value {
      list {
        shape {
        }
      }
    }
  }
  attr {
    key: "dtype"
    value {
      type: DT_FLOAT
    }
  }
  attr {
    key: "value"
    value {
      tensor {
        dtype: DT_FLOAT
        tensor_shape {
        }
        float_val: 0.25
      }
    }
  }
}
node {
  name: "dnn/hiddenlayer_2/weights/part_0/Initializer/random_uniform/RandomUniform"
  op: "RandomUniform"
  input: "dnn/hiddenlayer_2/weights/part_0/Initializer/random_uniform/shape"
  attr {
    key: "T"
    value {
      type: DT_INT32
    }
  }
  attr {
    key: "_class"
    value {
      list {
        s: "loc:@dnn/hiddenlayer_2/weights/part_0"
      }
    }
  }
  attr {
    key: "_output_shapes"
    value {
      list {
        shape {
          dim {
            size: 64
          }
          dim {
            size: 32
          }
        }
      }
    }
  }
  attr {
    key: "dtype"
    value {
      type: DT_FLOAT
    }
  }
  attr {
    key: "seed"
    value {
      i: 0
    }
  }
  attr {
    key: "seed2"
    value {
      i: 0
    }
  }
}
node {
  name: "dnn/hiddenlayer_2/weights/part_0/Initializer/random_uniform/sub"
  op: "Sub"
  input: "dnn/hiddenlayer_2/weights/part_0/Initializer/random_uniform/max"
  input: "dnn/hiddenlayer_2/weights/part_0/Initializer/random_uniform/min"
  attr {
    key: "T"
    value {
      type: DT_FLOAT
    }
  }
  attr {
    key: "_class"
    value {
      list {
        s: "loc:@dnn/hiddenlayer_2/weights/part_0"
      }
    }
  }
  attr {
    key: "_output_shapes"
    value {
      list {
        shape {
        }
      }
    }
  }
}
node {
  name: "dnn/hiddenlayer_2/weights/part_0/Initializer/random_uniform/mul"
  op: "Mul"
  input: "dnn/hiddenlayer_2/weights/part_0/Initializer/random_uniform/RandomUniform"
  input: "dnn/hiddenlayer_2/weights/part_0/Initializer/random_uniform/sub"
  attr {
    key: "T"
    value {
      type: DT_FLOAT
    }
  }
  attr {
    key: "_class"
    value {
      list {
        s: "loc:@dnn/hiddenlayer_2/weights/part_0"
      }
    }
  }
  attr {
    key: "_output_shapes"
    value {
      list {
        shape {
          dim {
            size: 64
          }
          dim {
            size: 32
          }
        }
      }
    }
  }
}
node {
  name: "dnn/hiddenlayer_2/weights/part_0/Initializer/random_uniform"
  op: "Add"
  input: "dnn/hiddenlayer_2/weights/part_0/Initializer/random_uniform/mul"
  input: "dnn/hiddenlayer_2/weights/part_0/Initializer/random_uniform/min"
  attr {
    key: "T"
    value {
      type: DT_FLOAT
    }
  }
  attr {
    key: "_class"
    value {
      list {
        s: "loc:@dnn/hiddenlayer_2/weights/part_0"
      }
    }
  }
  attr {
    key: "_output_shapes"
    value {
      list {
        shape {
          dim {
            size: 64
          }
          dim {
            size: 32
          }
        }
      }
    }
  }
}
node {
  name: "dnn/hiddenlayer_2/weights/part_0"
  op: "VariableV2"
  attr {
    key: "_class"
    value {
      list {
        s: "loc:@dnn/hiddenlayer_2/weights/part_0"
      }
    }
  }
  attr {
    key: "_output_shapes"
    value {
      list {
        shape {
          dim {
            size: 64
          }
          dim {
            size: 32
          }
        }
      }
    }
  }
  attr {
    key: "container"
    value {
      s: ""
    }
  }
  attr {
    key: "dtype"
    value {
      type: DT_FLOAT
    }
  }
  attr {
    key: "shape"
    value {
      shape {
        dim {
          size: 64
        }
        dim {
          size: 32
        }
      }
    }
  }
  attr {
    key: "shared_name"
    value {
      s: ""
    }
  }
}
node {
  name: "dnn/hiddenlayer_2/weights/part_0/Assign"
  op: "Assign"
  input: "dnn/hiddenlayer_2/weights/part_0"
  input: "dnn/hiddenlayer_2/weights/part_0/Initializer/random_uniform"
  attr {
    key: "T"
    value {
      type: DT_FLOAT
    }
  }
  attr {
    key: "_class"
    value {
      list {
        s: "loc:@dnn/hiddenlayer_2/weights/part_0"
      }
    }
  }
  attr {
    key: "_output_shapes"
    value {
      list {
        shape {
          dim {
            size: 64
          }
          dim {
            size: 32
          }
        }
      }
    }
  }
  attr {
    key: "use_locking"
    value {
      b: true
    }
  }
  attr {
    key: "validate_shape"
    value {
      b: true
    }
  }
}
node {
  name: "dnn/hiddenlayer_2/weights/part_0/read"
  op: "Identity"
  input: "dnn/hiddenlayer_2/weights/part_0"
  attr {
    key: "T"
    value {
      type: DT_FLOAT
    }
  }
  attr {
    key: "_class"
    value {
      list {
        s: "loc:@dnn/hiddenlayer_2/weights/part_0"
      }
    }
  }
  attr {
    key: "_output_shapes"
    value {
      list {
        shape {
          dim {
            size: 64
          }
          dim {
            size: 32
          }
        }
      }
    }
  }
}
node {
  name: "dnn/hiddenlayer_2/biases/part_0/Initializer/zeros"
  op: "Const"
  attr {
    key: "_class"
    value {
      list {
        s: "loc:@dnn/hiddenlayer_2/biases/part_0"
      }
    }
  }
  attr {
    key: "_output_shapes"
    value {
      list {
        shape {
          dim {
            size: 32
          }
        }
      }
    }
  }
  attr {
    key: "dtype"
    value {
      type: DT_FLOAT
    }
  }
  attr {
    key: "value"
    value {
      tensor {
        dtype: DT_FLOAT
        tensor_shape {
          dim {
            size: 32
          }
        }
        float_val: 0.0
      }
    }
  }
}
node {
  name: "dnn/hiddenlayer_2/biases/part_0"
  op: "VariableV2"
  attr {
    key: "_class"
    value {
      list {
        s: "loc:@dnn/hiddenlayer_2/biases/part_0"
      }
    }
  }
  attr {
    key: "_output_shapes"
    value {
      list {
        shape {
          dim {
            size: 32
          }
        }
      }
    }
  }
  attr {
    key: "container"
    value {
      s: ""
    }
  }
  attr {
    key: "dtype"
    value {
      type: DT_FLOAT
    }
  }
  attr {
    key: "shape"
    value {
      shape {
        dim {
          size: 32
        }
      }
    }
  }
  attr {
    key: "shared_name"
    value {
      s: ""
    }
  }
}
node {
  name: "dnn/hiddenlayer_2/biases/part_0/Assign"
  op: "Assign"
  input: "dnn/hiddenlayer_2/biases/part_0"
  input: "dnn/hiddenlayer_2/biases/part_0/Initializer/zeros"
  attr {
    key: "T"
    value {
      type: DT_FLOAT
    }
  }
  attr {
    key: "_class"
    value {
      list {
        s: "loc:@dnn/hiddenlayer_2/biases/part_0"
      }
    }
  }
  attr {
    key: "_output_shapes"
    value {
      list {
        shape {
          dim {
            size: 32
          }
        }
      }
    }
  }
  attr {
    key: "use_locking"
    value {
      b: true
    }
  }
  attr {
    key: "validate_shape"
    value {
      b: true
    }
  }
}
node {
  name: "dnn/hiddenlayer_2/biases/part_0/read"
  op: "Identity"
  input: "dnn/hiddenlayer_2/biases/part_0"
  attr {
    key: "T"
    value {
      type: DT_FLOAT
    }
  }
  attr {
    key: "_class"
    value {
      list {
        s: "loc:@dnn/hiddenlayer_2/biases/part_0"
      }
    }
  }
  attr {
    key: "_output_shapes"
    value {
      list {
        shape {
          dim {
            size: 32
          }
        }
      }
    }
  }
}
node {
  name: "dnn/hiddenlayer_2/weights"
  op: "Identity"
  input: "dnn/hiddenlayer_2/weights/part_0/read"
  attr {
    key: "T"
    value {
      type: DT_FLOAT
    }
  }
  attr {
    key: "_output_shapes"
    value {
      list {
        shape {
          dim {
            size: 64
          }
          dim {
            size: 32
          }
        }
      }
    }
  }
}
node {
  name: "dnn/hiddenlayer_2/MatMul"
  op: "MatMul"
  input: "dnn/hiddenlayer_1/hiddenlayer_1/Relu"
  input: "dnn/hiddenlayer_2/weights"
  attr {
    key: "T"
    value {
      type: DT_FLOAT
    }
  }
  attr {
    key: "_output_shapes"
    value {
      list {
        shape {
          dim {
            size: -1
          }
          dim {
            size: 32
          }
        }
      }
    }
  }
  attr {
    key: "transpose_a"
    value {
      b: false
    }
  }
  attr {
    key: "transpose_b"
    value {
      b: false
    }
  }
}
node {
  name: "dnn/hiddenlayer_2/biases"
  op: "Identity"
  input: "dnn/hiddenlayer_2/biases/part_0/read"
  attr {
    key: "T"
    value {
      type: DT_FLOAT
    }
  }
  attr {
    key: "_output_shapes"
    value {
      list {
        shape {
          dim {
            size: 32
          }
        }
      }
    }
  }
}
node {
  name: "dnn/hiddenlayer_2/BiasAdd"
  op: "BiasAdd"
  input: "dnn/hiddenlayer_2/MatMul"
  input: "dnn/hiddenlayer_2/biases"
  attr {
    key: "T"
    value {
      type: DT_FLOAT
    }
  }
  attr {
    key: "_output_shapes"
    value {
      list {
        shape {
          dim {
            size: -1
          }
          dim {
            size: 32
          }
        }
      }
    }
  }
  attr {
    key: "data_format"
    value {
      s: "NHWC"
    }
  }
}
node {
  name: "dnn/hiddenlayer_2/hiddenlayer_2/Relu"
  op: "Relu"
  input: "dnn/hiddenlayer_2/BiasAdd"
  attr {
    key: "T"
    value {
      type: DT_FLOAT
    }
  }
  attr {
    key: "_output_shapes"
    value {
      list {
        shape {
          dim {
            size: -1
          }
          dim {
            size: 32
          }
        }
      }
    }
  }
}
node {
  name: "dnn/zero_fraction_2/zero"
  op: "Const"
  attr {
    key: "_output_shapes"
    value {
      list {
        shape {
        }
      }
    }
  }
  attr {
    key: "dtype"
    value {
      type: DT_FLOAT
    }
  }
  attr {
    key: "value"
    value {
      tensor {
        dtype: DT_FLOAT
        tensor_shape {
        }
        float_val: 0.0
      }
    }
  }
}
node {
  name: "dnn/zero_fraction_2/Equal"
  op: "Equal"
  input: "dnn/hiddenlayer_2/hiddenlayer_2/Relu"
  input: "dnn/zero_fraction_2/zero"
  attr {
    key: "T"
    value {
      type: DT_FLOAT
    }
  }
  attr {
    key: "_output_shapes"
    value {
      list {
        shape {
          dim {
            size: -1
          }
          dim {
            size: 32
          }
        }
      }
    }
  }
}
node {
  name: "dnn/zero_fraction_2/Cast"
  op: "Cast"
  input: "dnn/zero_fraction_2/Equal"
  attr {
    key: "DstT"
    value {
      type: DT_FLOAT
    }
  }
  attr {
    key: "SrcT"
    value {
      type: DT_BOOL
    }
  }
  attr {
    key: "_output_shapes"
    value {
      list {
        shape {
          dim {
            size: -1
          }
          dim {
            size: 32
          }
        }
      }
    }
  }
}
node {
  name: "dnn/zero_fraction_2/Const"
  op: "Const"
  attr {
    key: "_output_shapes"
    value {
      list {
        shape {
          dim {
            size: 2
          }
        }
      }
    }
  }
  attr {
    key: "dtype"
    value {
      type: DT_INT32
    }
  }
  attr {
    key: "value"
    value {
      tensor {
        dtype: DT_INT32
        tensor_shape {
          dim {
            size: 2
          }
        }
        tensor_content: "\000\000\000\000\001\000\000\000"
      }
    }
  }
}
node {
  name: "dnn/zero_fraction_2/Mean"
  op: "Mean"
  input: "dnn/zero_fraction_2/Cast"
  input: "dnn/zero_fraction_2/Const"
  attr {
    key: "T"
    value {
      type: DT_FLOAT
    }
  }
  attr {
    key: "Tidx"
    value {
      type: DT_INT32
    }
  }
  attr {
    key: "_output_shapes"
    value {
      list {
        shape {
        }
      }
    }
  }
  attr {
    key: "keep_dims"
    value {
      b: false
    }
  }
}
node {
  name: "dnn/dnn/hiddenlayer_2/fraction_of_zero_values/tags"
  op: "Const"
  attr {
    key: "_output_shapes"
    value {
      list {
        shape {
        }
      }
    }
  }
  attr {
    key: "dtype"
    value {
      type: DT_STRING
    }
  }
  attr {
    key: "value"
    value {
      tensor {
        dtype: DT_STRING
        tensor_shape {
        }
        string_val: "dnn/dnn/hiddenlayer_2/fraction_of_zero_values"
      }
    }
  }
}
node {
  name: "dnn/dnn/hiddenlayer_2/fraction_of_zero_values"
  op: "ScalarSummary"
  input: "dnn/dnn/hiddenlayer_2/fraction_of_zero_values/tags"
  input: "dnn/zero_fraction_2/Mean"
  attr {
    key: "T"
    value {
      type: DT_FLOAT
    }
  }
  attr {
    key: "_output_shapes"
    value {
      list {
        shape {
        }
      }
    }
  }
}
node {
  name: "dnn/dnn/hiddenlayer_2/activation/tag"
  op: "Const"
  attr {
    key: "_output_shapes"
    value {
      list {
        shape {
        }
      }
    }
  }
  attr {
    key: "dtype"
    value {
      type: DT_STRING
    }
  }
  attr {
    key: "value"
    value {
      tensor {
        dtype: DT_STRING
        tensor_shape {
        }
        string_val: "dnn/dnn/hiddenlayer_2/activation"
      }
    }
  }
}
node {
  name: "dnn/dnn/hiddenlayer_2/activation"
  op: "HistogramSummary"
  input: "dnn/dnn/hiddenlayer_2/activation/tag"
  input: "dnn/hiddenlayer_2/hiddenlayer_2/Relu"
  attr {
    key: "T"
    value {
      type: DT_FLOAT
    }
  }
  attr {
    key: "_output_shapes"
    value {
      list {
        shape {
        }
      }
    }
  }
}
node {
  name: "dnn/logits/weights/part_0/Initializer/random_uniform/shape"
  op: "Const"
  attr {
    key: "_class"
    value {
      list {
        s: "loc:@dnn/logits/weights/part_0"
      }
    }
  }
  attr {
    key: "_output_shapes"
    value {
      list {
        shape {
          dim {
            size: 2
          }
        }
      }
    }
  }
  attr {
    key: "dtype"
    value {
      type: DT_INT32
    }
  }
  attr {
    key: "value"
    value {
      tensor {
        dtype: DT_INT32
        tensor_shape {
          dim {
            size: 2
          }
        }
        tensor_content: " \000\000\000\001\000\000\000"
      }
    }
  }
}
node {
  name: "dnn/logits/weights/part_0/Initializer/random_uniform/min"
  op: "Const"
  attr {
    key: "_class"
    value {
      list {
        s: "loc:@dnn/logits/weights/part_0"
      }
    }
  }
  attr {
    key: "_output_shapes"
    value {
      list {
        shape {
        }
      }
    }
  }
  attr {
    key: "dtype"
    value {
      type: DT_FLOAT
    }
  }
  attr {
    key: "value"
    value {
      tensor {
        dtype: DT_FLOAT
        tensor_shape {
        }
        float_val: -0.426401436329
      }
    }
  }
}
node {
  name: "dnn/logits/weights/part_0/Initializer/random_uniform/max"
  op: "Const"
  attr {
    key: "_class"
    value {
      list {
        s: "loc:@dnn/logits/weights/part_0"
      }
    }
  }
  attr {
    key: "_output_shapes"
    value {
      list {
        shape {
        }
      }
    }
  }
  attr {
    key: "dtype"
    value {
      type: DT_FLOAT
    }
  }
  attr {
    key: "value"
    value {
      tensor {
        dtype: DT_FLOAT
        tensor_shape {
        }
        float_val: 0.426401436329
      }
    }
  }
}
node {
  name: "dnn/logits/weights/part_0/Initializer/random_uniform/RandomUniform"
  op: "RandomUniform"
  input: "dnn/logits/weights/part_0/Initializer/random_uniform/shape"
  attr {
    key: "T"
    value {
      type: DT_INT32
    }
  }
  attr {
    key: "_class"
    value {
      list {
        s: "loc:@dnn/logits/weights/part_0"
      }
    }
  }
  attr {
    key: "_output_shapes"
    value {
      list {
        shape {
          dim {
            size: 32
          }
          dim {
            size: 1
          }
        }
      }
    }
  }
  attr {
    key: "dtype"
    value {
      type: DT_FLOAT
    }
  }
  attr {
    key: "seed"
    value {
      i: 0
    }
  }
  attr {
    key: "seed2"
    value {
      i: 0
    }
  }
}
node {
  name: "dnn/logits/weights/part_0/Initializer/random_uniform/sub"
  op: "Sub"
  input: "dnn/logits/weights/part_0/Initializer/random_uniform/max"
  input: "dnn/logits/weights/part_0/Initializer/random_uniform/min"
  attr {
    key: "T"
    value {
      type: DT_FLOAT
    }
  }
  attr {
    key: "_class"
    value {
      list {
        s: "loc:@dnn/logits/weights/part_0"
      }
    }
  }
  attr {
    key: "_output_shapes"
    value {
      list {
        shape {
        }
      }
    }
  }
}
node {
  name: "dnn/logits/weights/part_0/Initializer/random_uniform/mul"
  op: "Mul"
  input: "dnn/logits/weights/part_0/Initializer/random_uniform/RandomUniform"
  input: "dnn/logits/weights/part_0/Initializer/random_uniform/sub"
  attr {
    key: "T"
    value {
      type: DT_FLOAT
    }
  }
  attr {
    key: "_class"
    value {
      list {
        s: "loc:@dnn/logits/weights/part_0"
      }
    }
  }
  attr {
    key: "_output_shapes"
    value {
      list {
        shape {
          dim {
            size: 32
          }
          dim {
            size: 1
          }
        }
      }
    }
  }
}
node {
  name: "dnn/logits/weights/part_0/Initializer/random_uniform"
  op: "Add"
  input: "dnn/logits/weights/part_0/Initializer/random_uniform/mul"
  input: "dnn/logits/weights/part_0/Initializer/random_uniform/min"
  attr {
    key: "T"
    value {
      type: DT_FLOAT
    }
  }
  attr {
    key: "_class"
    value {
      list {
        s: "loc:@dnn/logits/weights/part_0"
      }
    }
  }
  attr {
    key: "_output_shapes"
    value {
      list {
        shape {
          dim {
            size: 32
          }
          dim {
            size: 1
          }
        }
      }
    }
  }
}
node {
  name: "dnn/logits/weights/part_0"
  op: "VariableV2"
  attr {
    key: "_class"
    value {
      list {
        s: "loc:@dnn/logits/weights/part_0"
      }
    }
  }
  attr {
    key: "_output_shapes"
    value {
      list {
        shape {
          dim {
            size: 32
          }
          dim {
            size: 1
          }
        }
      }
    }
  }
  attr {
    key: "container"
    value {
      s: ""
    }
  }
  attr {
    key: "dtype"
    value {
      type: DT_FLOAT
    }
  }
  attr {
    key: "shape"
    value {
      shape {
        dim {
          size: 32
        }
        dim {
          size: 1
        }
      }
    }
  }
  attr {
    key: "shared_name"
    value {
      s: ""
    }
  }
}
node {
  name: "dnn/logits/weights/part_0/Assign"
  op: "Assign"
  input: "dnn/logits/weights/part_0"
  input: "dnn/logits/weights/part_0/Initializer/random_uniform"
  attr {
    key: "T"
    value {
      type: DT_FLOAT
    }
  }
  attr {
    key: "_class"
    value {
      list {
        s: "loc:@dnn/logits/weights/part_0"
      }
    }
  }
  attr {
    key: "_output_shapes"
    value {
      list {
        shape {
          dim {
            size: 32
          }
          dim {
            size: 1
          }
        }
      }
    }
  }
  attr {
    key: "use_locking"
    value {
      b: true
    }
  }
  attr {
    key: "validate_shape"
    value {
      b: true
    }
  }
}
node {
  name: "dnn/logits/weights/part_0/read"
  op: "Identity"
  input: "dnn/logits/weights/part_0"
  attr {
    key: "T"
    value {
      type: DT_FLOAT
    }
  }
  attr {
    key: "_class"
    value {
      list {
        s: "loc:@dnn/logits/weights/part_0"
      }
    }
  }
  attr {
    key: "_output_shapes"
    value {
      list {
        shape {
          dim {
            size: 32
          }
          dim {
            size: 1
          }
        }
      }
    }
  }
}
node {
  name: "dnn/logits/biases/part_0/Initializer/zeros"
  op: "Const"
  attr {
    key: "_class"
    value {
      list {
        s: "loc:@dnn/logits/biases/part_0"
      }
    }
  }
  attr {
    key: "_output_shapes"
    value {
      list {
        shape {
          dim {
            size: 1
          }
        }
      }
    }
  }
  attr {
    key: "dtype"
    value {
      type: DT_FLOAT
    }
  }
  attr {
    key: "value"
    value {
      tensor {
        dtype: DT_FLOAT
        tensor_shape {
          dim {
            size: 1
          }
        }
        float_val: 0.0
      }
    }
  }
}
node {
  name: "dnn/logits/biases/part_0"
  op: "VariableV2"
  attr {
    key: "_class"
    value {
      list {
        s: "loc:@dnn/logits/biases/part_0"
      }
    }
  }
  attr {
    key: "_output_shapes"
    value {
      list {
        shape {
          dim {
            size: 1
          }
        }
      }
    }
  }
  attr {
    key: "container"
    value {
      s: ""
    }
  }
  attr {
    key: "dtype"
    value {
      type: DT_FLOAT
    }
  }
  attr {
    key: "shape"
    value {
      shape {
        dim {
          size: 1
        }
      }
    }
  }
  attr {
    key: "shared_name"
    value {
      s: ""
    }
  }
}
node {
  name: "dnn/logits/biases/part_0/Assign"
  op: "Assign"
  input: "dnn/logits/biases/part_0"
  input: "dnn/logits/biases/part_0/Initializer/zeros"
  attr {
    key: "T"
    value {
      type: DT_FLOAT
    }
  }
  attr {
    key: "_class"
    value {
      list {
        s: "loc:@dnn/logits/biases/part_0"
      }
    }
  }
  attr {
    key: "_output_shapes"
    value {
      list {
        shape {
          dim {
            size: 1
          }
        }
      }
    }
  }
  attr {
    key: "use_locking"
    value {
      b: true
    }
  }
  attr {
    key: "validate_shape"
    value {
      b: true
    }
  }
}
node {
  name: "dnn/logits/biases/part_0/read"
  op: "Identity"
  input: "dnn/logits/biases/part_0"
  attr {
    key: "T"
    value {
      type: DT_FLOAT
    }
  }
  attr {
    key: "_class"
    value {
      list {
        s: "loc:@dnn/logits/biases/part_0"
      }
    }
  }
  attr {
    key: "_output_shapes"
    value {
      list {
        shape {
          dim {
            size: 1
          }
        }
      }
    }
  }
}
node {
  name: "dnn/logits/weights"
  op: "Identity"
  input: "dnn/logits/weights/part_0/read"
  attr {
    key: "T"
    value {
      type: DT_FLOAT
    }
  }
  attr {
    key: "_output_shapes"
    value {
      list {
        shape {
          dim {
            size: 32
          }
          dim {
            size: 1
          }
        }
      }
    }
  }
}
node {
  name: "dnn/logits/MatMul"
  op: "MatMul"
  input: "dnn/hiddenlayer_2/hiddenlayer_2/Relu"
  input: "dnn/logits/weights"
  attr {
    key: "T"
    value {
      type: DT_FLOAT
    }
  }
  attr {
    key: "_output_shapes"
    value {
      list {
        shape {
          dim {
            size: -1
          }
          dim {
            size: 1
          }
        }
      }
    }
  }
  attr {
    key: "transpose_a"
    value {
      b: false
    }
  }
  attr {
    key: "transpose_b"
    value {
      b: false
    }
  }
}
node {
  name: "dnn/logits/biases"
  op: "Identity"
  input: "dnn/logits/biases/part_0/read"
  attr {
    key: "T"
    value {
      type: DT_FLOAT
    }
  }
  attr {
    key: "_output_shapes"
    value {
      list {
        shape {
          dim {
            size: 1
          }
        }
      }
    }
  }
}
node {
  name: "dnn/logits/BiasAdd"
  op: "BiasAdd"
  input: "dnn/logits/MatMul"
  input: "dnn/logits/biases"
  attr {
    key: "T"
    value {
      type: DT_FLOAT
    }
  }
  attr {
    key: "_output_shapes"
    value {
      list {
        shape {
          dim {
            size: -1
          }
          dim {
            size: 1
          }
        }
      }
    }
  }
  attr {
    key: "data_format"
    value {
      s: "NHWC"
    }
  }
}
node {
  name: "dnn/zero_fraction_3/zero"
  op: "Const"
  attr {
    key: "_output_shapes"
    value {
      list {
        shape {
        }
      }
    }
  }
  attr {
    key: "dtype"
    value {
      type: DT_FLOAT
    }
  }
  attr {
    key: "value"
    value {
      tensor {
        dtype: DT_FLOAT
        tensor_shape {
        }
        float_val: 0.0
      }
    }
  }
}
node {
  name: "dnn/zero_fraction_3/Equal"
  op: "Equal"
  input: "dnn/logits/BiasAdd"
  input: "dnn/zero_fraction_3/zero"
  attr {
    key: "T"
    value {
      type: DT_FLOAT
    }
  }
  attr {
    key: "_output_shapes"
    value {
      list {
        shape {
          dim {
            size: -1
          }
          dim {
            size: 1
          }
        }
      }
    }
  }
}
node {
  name: "dnn/zero_fraction_3/Cast"
  op: "Cast"
  input: "dnn/zero_fraction_3/Equal"
  attr {
    key: "DstT"
    value {
      type: DT_FLOAT
    }
  }
  attr {
    key: "SrcT"
    value {
      type: DT_BOOL
    }
  }
  attr {
    key: "_output_shapes"
    value {
      list {
        shape {
          dim {
            size: -1
          }
          dim {
            size: 1
          }
        }
      }
    }
  }
}
node {
  name: "dnn/zero_fraction_3/Const"
  op: "Const"
  attr {
    key: "_output_shapes"
    value {
      list {
        shape {
          dim {
            size: 2
          }
        }
      }
    }
  }
  attr {
    key: "dtype"
    value {
      type: DT_INT32
    }
  }
  attr {
    key: "value"
    value {
      tensor {
        dtype: DT_INT32
        tensor_shape {
          dim {
            size: 2
          }
        }
        tensor_content: "\000\000\000\000\001\000\000\000"
      }
    }
  }
}
node {
  name: "dnn/zero_fraction_3/Mean"
  op: "Mean"
  input: "dnn/zero_fraction_3/Cast"
  input: "dnn/zero_fraction_3/Const"
  attr {
    key: "T"
    value {
      type: DT_FLOAT
    }
  }
  attr {
    key: "Tidx"
    value {
      type: DT_INT32
    }
  }
  attr {
    key: "_output_shapes"
    value {
      list {
        shape {
        }
      }
    }
  }
  attr {
    key: "keep_dims"
    value {
      b: false
    }
  }
}
node {
  name: "dnn/dnn/logits/fraction_of_zero_values/tags"
  op: "Const"
  attr {
    key: "_output_shapes"
    value {
      list {
        shape {
        }
      }
    }
  }
  attr {
    key: "dtype"
    value {
      type: DT_STRING
    }
  }
  attr {
    key: "value"
    value {
      tensor {
        dtype: DT_STRING
        tensor_shape {
        }
        string_val: "dnn/dnn/logits/fraction_of_zero_values"
      }
    }
  }
}
node {
  name: "dnn/dnn/logits/fraction_of_zero_values"
  op: "ScalarSummary"
  input: "dnn/dnn/logits/fraction_of_zero_values/tags"
  input: "dnn/zero_fraction_3/Mean"
  attr {
    key: "T"
    value {
      type: DT_FLOAT
    }
  }
  attr {
    key: "_output_shapes"
    value {
      list {
        shape {
        }
      }
    }
  }
}
node {
  name: "dnn/dnn/logits/activation/tag"
  op: "Const"
  attr {
    key: "_output_shapes"
    value {
      list {
        shape {
        }
      }
    }
  }
  attr {
    key: "dtype"
    value {
      type: DT_STRING
    }
  }
  attr {
    key: "value"
    value {
      tensor {
        dtype: DT_STRING
        tensor_shape {
        }
        string_val: "dnn/dnn/logits/activation"
      }
    }
  }
}
node {
  name: "dnn/dnn/logits/activation"
  op: "HistogramSummary"
  input: "dnn/dnn/logits/activation/tag"
  input: "dnn/logits/BiasAdd"
  attr {
    key: "T"
    value {
      type: DT_FLOAT
    }
  }
  attr {
    key: "_output_shapes"
    value {
      list {
        shape {
        }
      }
    }
  }
}
node {
  name: "linear/linear_model/alpha/to_sparse_input/Shape"
  op: "Shape"
  input: "shuffle_batch"
  attr {
    key: "T"
    value {
      type: DT_STRING
    }
  }
  attr {
    key: "_output_shapes"
    value {
…
  op: "Const"
  attr {
    key: "_output_shapes"
    value {
      list {
        shape {
          dim {
            size: 1
          }
        }
      }
    }
  }
  attr {
    key: "dtype"
    value {
      type: DT_STRING
    }
  }
  attr {
    key: "value"
    value {
      tensor {
        dtype: DT_STRING
        tensor_shape {
          dim {
            size: 1
          }
        }
        string_val: "dnn/hiddenlayer_1/biases"
      }
    }
  }
}
node {
  name: "save/RestoreV2_4/shape_and_slices"
  op: "Const"
  attr {
    key: "_output_shapes"
    value {
      list {
        shape {
          dim {
            size: 1
          }
        }
      }
    }
  }
  attr {
    key: "dtype"
    value {
      type: DT_STRING
    }
  }
  attr {
    key: "value"
    value {
      tensor {
        dtype: DT_STRING
        tensor_shape {
          dim {
            size: 1
          }
        }
        string_val: "64 0,64"
      }
    }
  }
}
node {
  name: "save/RestoreV2_4"
  op: "RestoreV2"
  input: "save/Const"
  input: "save/RestoreV2_4/tensor_names"
  input: "save/RestoreV2_4/shape_and_slices"
  attr {
    key: "_output_shapes"
    value {
      list {
        shape {
          unknown_rank: true
        }
      }
    }
  }
  attr {
    key: "dtypes"
    value {
      list {
        type: DT_FLOAT
      }
    }
  }
}
node {
  name: "save/Assign_4"
  op: "Assign"
  input: "dnn/hiddenlayer_1/biases/part_0"
  input: "save/RestoreV2_4"
  attr {
    key: "T"
    value {
      type: DT_FLOAT
    }
  }
  attr {
    key: "_class"
    value {
      list {
        s: "loc:@dnn/hiddenlayer_1/biases/part_0"
      }
    }
  }
  attr {
    key: "_output_shapes"
    value {
      list {
        shape {
          dim {
            size: 64
          }
        }
      }
    }
  }
  attr {
    key: "use_locking"
    value {
      b: true
    }
  }
  attr {
    key: "validate_shape"
    value {
      b: true
    }
  }
}
node {
  name: "save/RestoreV2_5/tensor_names"
  op: "Const"
  attr {
    key: "_output_shapes"
    value {
      list {
        shape {
          dim {
            size: 1
          }
        }
      }
    }
  }
  attr {
    key: "dtype"
    value {
      type: DT_STRING
    }
  }
  attr {
    key: "value"
    value {
      tensor {
        dtype: DT_STRING
        tensor_shape {
          dim {
            size: 1
          }
        }
        string_val: "dnn/hiddenlayer_1/biases/yer_1/biases/part_0/Adagrad"
      }
    }
  }
}
node {
  name: "save/RestoreV2_5/shape_and_slices"
  op: "Const"
  attr {
    key: "_output_shapes"
    value {
      list {
        shape {
          dim {
            size: 1
          }
        }
      }
    }
  }
  attr {
    key: "dtype"
    value {
      type: DT_STRING
    }
  }
  attr {
    key: "value"
    value {
      tensor {
        dtype: DT_STRING
        tensor_shape {
          dim {
            size: 1
          }
        }
        string_val: "64 0,64"
      }
    }
  }
}
node {
  name: "save/RestoreV2_5"
  op: "RestoreV2"
  input: "save/Const"
  input: "save/RestoreV2_5/tensor_names"
  input: "save/RestoreV2_5/shape_and_slices"
  attr {
    key: "_output_shapes"
    value {
      list {
        shape {
          unknown_rank: true
        }
      }
    }
  }
  attr {
    key: "dtypes"
    value {
      list {
        type: DT_FLOAT
      }
    }
  }
}
node {
  name: "save/Assign_5"
  op: "Assign"
  input: "regression_head/dnn/dnn/hiddenlayer_1/biases/part_0/Adagrad"
  input: "save/RestoreV2_5"
  attr {
    key: "T"
    value {
      type: DT_FLOAT
    }
  }
  attr {
    key: "_class"
    value {
      list {
        s: "loc:@dnn/hiddenlayer_1/biases/part_0"
      }
    }
  }
  attr {
    key: "_output_shapes"
    value {
      list {
        shape {
          dim {
            size: 64
          }
        }
      }
    }
  }
  attr {
    key: "use_locking"
    value {
      b: true
    }
  }
  attr {
    key: "validate_shape"
    value {
      b: true
    }
  }
}
node {
  name: "save/RestoreV2_6/tensor_names"
  op: "Const"
  attr {
    key: "_output_shapes"
    value {
      list {
        shape {
          dim {
            size: 1
          }
        }
      }
    }
  }
  attr {
    key: "dtype"
    value {
      type: DT_STRING
    }
  }
  attr {
    key: "value"
    value {
      tensor {
        dtype: DT_STRING
        tensor_shape {
          dim {
            size: 1
          }
        }
        string_val: "dnn/hiddenlayer_1/weights"
      }
    }
  }
}
node {
  name: "save/RestoreV2_6/shape_and_slices"
  op: "Const"
  attr {
    key: "_output_shapes"
    value {
      list {
        shape {
          dim {
            size: 1
          }
        }
      }
    }
  }
  attr {
    key: "dtype"
    value {
      type: DT_STRING
    }
  }
  attr {
    key: "value"
    value {
      tensor {
        dtype: DT_STRING
        tensor_shape {
          dim {
            size: 1
          }
        }
        string_val: "128 64 0,128:0,64"
      }
    }
  }
}
node {
  name: "save/RestoreV2_6"
  op: "RestoreV2"
  input: "save/Const"
  input: "save/RestoreV2_6/tensor_names"
  input: "save/RestoreV2_6/shape_and_slices"
  attr {
    key: "_output_shapes"
    value {
      list {
        shape {
          unknown_rank: true
        }
      }
    }
  }
  attr {
    key: "dtypes"
    value {
      list {
        type: DT_FLOAT
      }
    }
  }
}
node {
  name: "save/Assign_6"
  op: "Assign"
  input: "dnn/hiddenlayer_1/weights/part_0"
  input: "save/RestoreV2_6"
  attr {
    key: "T"
    value {
      type: DT_FLOAT
    }
  }
  attr {
    key: "_class"
    value {
      list {
        s: "loc:@dnn/hiddenlayer_1/weights/part_0"
      }
    }
  }
  attr {
    key: "_output_shapes"
    value {
      list {
        shape {
          dim {
            size: 128
          }
          dim {
            size: 64
          }
        }
      }
    }
  }
  attr {
    key: "use_locking"
    value {
      b: true
    }
  }
  attr {
    key: "validate_shape"
    value {
      b: true
    }
  }
}
node {
  name: "save/RestoreV2_7/tensor_names"
  op: "Const"
  attr {
    key: "_output_shapes"
    value {
      list {
        shape {
          dim {
            size: 1
          }
        }
      }
    }
  }
  attr {
    key: "dtype"
    value {
      type: DT_STRING
    }
  }
  attr {
    key: "value"
    value {
      tensor {
        dtype: DT_STRING
        tensor_shape {
          dim {
            size: 1
          }
        }
        string_val: "dnn/hiddenlayer_1/weights/er_1/weights/part_0/Adagrad"
      }
    }
  }
}
node {
  name: "save/RestoreV2_7/shape_and_slices"
  op: "Const"
  attr {
    key: "_output_shapes"
    value {
      list {
        shape {
          dim {
            size: 1
          }
        }
      }
    }
  }
  attr {
    key: "dtype"
    value {
      type: DT_STRING
    }
  }
  attr {
    key: "value"
    value {
      tensor {
        dtype: DT_STRING
        tensor_shape {
          dim {
            size: 1
          }
        }
        string_val: "128 64 0,128:0,64"
      }
    }
  }
}
node {
  name: "save/RestoreV2_7"
  op: "RestoreV2"
  input: "save/Const"
  input: "save/RestoreV2_7/tensor_names"
  input: "save/RestoreV2_7/shape_and_slices"
  attr {
    key: "_output_shapes"
    value {
      list {
        shape {
          unknown_rank: true
        }
      }
    }
  }
  attr {
    key: "dtypes"
    value {
      list {
        type: DT_FLOAT
      }
    }
  }
}
node {
  name: "save/Assign_7"
  op: "Assign"
  input: "regression_head/dnn/dnn/hiddenlayer_1/weights/part_0/Adagrad"
  input: "save/RestoreV2_7"
  attr {
    key: "T"
    value {
      type: DT_FLOAT
    }
  }
  attr {
    key: "_class"
    value {
      list {
        s: "loc:@dnn/hiddenlayer_1/weights/part_0"
      }
    }
  }
  attr {
    key: "_output_shapes"
    value {
      list {
        shape {
          dim {
            size: 128
          }
          dim {
            size: 64
          }
        }
      }
    }
  }
  attr {
    key: "use_locking"
    value {
      b: true
    }
  }
  attr {
    key: "validate_shape"
    value {
      b: true
    }
  }
}
node {
  name: "save/RestoreV2_8/tensor_names"
  op: "Const"
  attr {
    key: "_output_shapes"
    value {
      list {
        shape {
          dim {
            size: 1
          }
        }
      }
    }
  }
  attr {
    key: "dtype"
    value {
      type: DT_STRING
    }
  }
  attr {
    key: "value"
    value {
      tensor {
        dtype: DT_STRING
        tensor_shape {
          dim {
            size: 1
          }
        }
        string_val: "dnn/hiddenlayer_2/biases"
      }
    }
  }
}
node {
  name: "save/RestoreV2_8/shape_and_slices"
  op: "Const"
  attr {
    key: "_output_shapes"
    value {
      list {
        shape {
          dim {
            size: 1
          }
        }
      }
    }
  }
  attr {
    key: "dtype"
    value {
      type: DT_STRING
    }
  }
  attr {
    key: "value"
    value {
      tensor {
        dtype: DT_STRING
        tensor_shape {
          dim {
            size: 1
          }
        }
        string_val: "32 0,32"
      }
    }
  }
}
node {
  name: "save/RestoreV2_8"
  op: "RestoreV2"
  input: "save/Const"
  input: "save/RestoreV2_8/tensor_names"
  input: "save/RestoreV2_8/shape_and_slices"
  attr {
    key: "_output_shapes"
    value {
      list {
        shape {
          unknown_rank: true
        }
      }
    }
  }
  attr {
    key: "dtypes"
    value {
      list {
        type: DT_FLOAT
      }
    }
  }
}
node {
  name: "save/Assign_8"
  op: "Assign"
  input: "dnn/hiddenlayer_2/biases/part_0"
  input: "save/RestoreV2_8"
  attr {
    key: "T"
    value {
      type: DT_FLOAT
    }
  }
  attr {
    key: "_class"
    value {
      list {
        s: "loc:@dnn/hiddenlayer_2/biases/part_0"
      }
    }
  }
  attr {
    key: "_output_shapes"
    value {
      list {
        shape {
          dim {
            size: 32
          }
        }
      }
    }
  }
  attr {
    key: "use_locking"
    value {
      b: true
    }
  }
  attr {
    key: "validate_shape"
    value {
      b: true
    }
  }
}
node {
  name: "save/RestoreV2_9/tensor_names"
  op: "Const"
  attr {
    key: "_output_shapes"
    value {
      list {
        shape {
          dim {
            size: 1
          }
        }
      }
    }
  }
  attr {
    key: "dtype"
    value {
      type: DT_STRING
    }
  }
  attr {
    key: "value"
    value {
      tensor {
        dtype: DT_STRING
        tensor_shape {
          dim {
            size: 1
          }
        }
        string_val: "dnn/hiddenlayer_2/biases/yer_2/biases/part_0/Adagrad"
      }
    }
  }
}
node {
  name: "save/RestoreV2_9/shape_and_slices"
  op: "Const"
  attr {
    key: "_output_shapes"
    value {
      list {
        shape {
          dim {
            size: 1
          }
        }
      }
    }
  }
  attr {
    key: "dtype"
    value {
      type: DT_STRING
    }
  }
  attr {
    key: "value"
    value {
      tensor {
        dtype: DT_STRING
        tensor_shape {
          dim {
            size: 1
          }
        }
        string_val: "32 0,32"
      }
    }
  }
}
node {
  name: "save/RestoreV2_9"
  op: "RestoreV2"
  input: "save/Const"
  input: "save/RestoreV2_9/tensor_names"
  input: "save/RestoreV2_9/shape_and_slices"
  attr {
    key: "_output_shapes"
    value {
      list {
        shape {
          unknown_rank: true
        }
      }
    }
  }
  attr {
    key: "dtypes"
    value {
      list {
        type: DT_FLOAT
      }
    }
  }
}
node {
  name: "save/Assign_9"
  op: "Assign"
  input: "regression_head/dnn/dnn/hiddenlayer_2/biases/part_0/Adagrad"
  input: "save/RestoreV2_9"
  attr {
    key: "T"
    value {
      type: DT_FLOAT
    }
  }
  attr {
    key: "_class"
    value {
      list {
        s: "loc:@dnn/hiddenlayer_2/biases/part_0"
      }
    }
  }
  attr {
    key: "_output_shapes"
    value {
      list {
        shape {
          dim {
            size: 32
          }
        }
      }
    }
  }
  attr {
    key: "use_locking"
    value {
      b: true
    }
  }
  attr {
    key: "validate_shape"
    value {
      b: true
    }
  }
}
node {
  name: "save/RestoreV2_10/tensor_names"
  op: "Const"
  attr {
    key: "_output_shapes"
    value {
      list {
        shape {
          dim {
            size: 1
          }
        }
      }
    }
  }
  attr {
    key: "dtype"
    value {
      type: DT_STRING
    }
  }
  attr {
    key: "value"
    value {
      tensor {
        dtype: DT_STRING
        tensor_shape {
          dim {
            size: 1
          }
        }
        string_val: "dnn/hiddenlayer_2/weights"
      }
    }
  }
}
node {
  name: "save/RestoreV2_10/shape_and_slices"
  op: "Const"
  attr {
    key: "_output_shapes"
    value {
      list {
        shape {
          dim {
            size: 1
          }
        }
      }
    }
  }
  attr {
    key: "dtype"
    value {
      type: DT_STRING
    }
  }
  attr {
    key: "value"
    value {
      tensor {
        dtype: DT_STRING
        tensor_shape {
          dim {
            size: 1
          }
        }
        string_val: "64 32 0,64:0,32"
      }
    }
  }
}
node {
  name: "save/RestoreV2_10"
  op: "RestoreV2"
  input: "save/Const"
  input: "save/RestoreV2_10/tensor_names"
  input: "save/RestoreV2_10/shape_and_slices"
  attr {
    key: "_output_shapes"
    value {
      list {
        shape {
          unknown_rank: true
        }
      }
    }
  }
  attr {
    key: "dtypes"
    value {
      list {
        type: DT_FLOAT
      }
    }
  }
}
node {
  name: "save/Assign_10"
  op: "Assign"
  input: "dnn/hiddenlayer_2/weights/part_0"
  input: "save/RestoreV2_10"
  attr {
    key: "T"
    value {
      type: DT_FLOAT
    }
  }
  attr {
    key: "_class"
    value {
      list {
        s: "loc:@dnn/hiddenlayer_2/weights/part_0"
      }
    }
  }
  attr {
    key: "_output_shapes"
    value {
      list {
        shape {
          dim {
            size: 64
          }
          dim {
            size: 32
          }
        }
      }
    }
  }
  attr {
    key: "use_locking"
    value {
      b: true
    }
  }
  attr {
    key: "validate_shape"
    value {
      b: true
    }
  }
}
node {
  name: "save/RestoreV2_11/tensor_names"
  op: "Const"
  attr {
    key: "_output_shapes"
    value {
      list {
        shape {
          dim {
            size: 1
          }
        }
      }
    }
  }
  attr {
    key: "dtype"
    value {
      type: DT_STRING
    }
  }
  attr {
    key: "value"
    value {
      tensor {
        dtype: DT_STRING
        tensor_shape {
          dim {
            size: 1
          }
        }
        string_val: "dnn/hiddenlayer_2/weights/er_2/weights/part_0/Adagrad"
      }
    }
  }
}
node {
  name: "save/RestoreV2_11/shape_and_slices"
  op: "Const"
  attr {
    key: "_output_shapes"
    value {
      list {
        shape {
          dim {
            size: 1
          }
        }
      }
    }
  }
  attr {
    key: "dtype"
    value {
      type: DT_STRING
    }
  }
  attr {
    key: "value"
    value {
      tensor {
        dtype: DT_STRING
        tensor_shape {
          dim {
            size: 1
          }
        }
        string_val: "64 32 0,64:0,32"
      }
    }
  }
}
node {
  name: "save/RestoreV2_11"
  op: "RestoreV2"
  input: "save/Const"
  input: "save/RestoreV2_11/tensor_names"
  input: "save/RestoreV2_11/shape_and_slices"
  attr {
    key: "_output_shapes"
    value {
      list {
        shape {
          unknown_rank: true
        }
      }
    }
  }
  attr {
    key: "dtypes"
    value {
      list {
        type: DT_FLOAT
      }
    }
  }
}
node {
  name: "save/Assign_11"
  op: "Assign"
  input: "regression_head/dnn/dnn/hiddenlayer_2/weights/part_0/Adagrad"
  input: "save/RestoreV2_11"
  attr {
    key: "T"
    value {
      type: DT_FLOAT
    }
  }
  attr {
    key: "_class"
    value {
      list {
        s: "loc:@dnn/hiddenlayer_2/weights/part_0"
      }
    }
  }
  attr {
    key: "_output_shapes"
    value {
      list {
        shape {
          dim {
            size: 64
          }
          dim {
            size: 32
          }
        }
      }
    }
  }
  attr {
    key: "use_locking"
    value {
      b: true
    }
  }
  attr {
    key: "validate_shape"
    value {
      b: true
    }
  }
}
node {
  name: "save/RestoreV2_12/tensor_names"
  op: "Const"
  attr {
    key: "_output_shapes"
    value {
      list {
        shape {
          dim {
            size: 1
          }
        }
      }
    }
  }
  attr {
    key: "dtype"
    value {
      type: DT_STRING
    }
  }
  attr {
    key: "value"
    value {
      tensor {
        dtype: DT_STRING
        tensor_shape {
          dim {
            size: 1
          }
        }
        string_val: "dnn/logits/biases"
      }
    }
  }
}
node {
  name: "save/RestoreV2_12/shape_and_slices"
  op: "Const"
  attr {
    key: "_output_shapes"
    value {
      list {
        shape {
          dim {
            size: 1
          }
        }
      }
    }
  }
  attr {
    key: "dtype"
    value {
      type: DT_STRING
    }
  }
  attr {
    key: "value"
    value {
      tensor {
        dtype: DT_STRING
        tensor_shape {
          dim {
            size: 1
          }
        }
        string_val: "1 0,1"
      }
    }
  }
}
node {
  name: "save/RestoreV2_12"
  op: "RestoreV2"
  input: "save/Const"
  input: "save/RestoreV2_12/tensor_names"
  input: "save/RestoreV2_12/shape_and_slices"
  attr {
    key: "_output_shapes"
    value {
      list {
        shape {
          unknown_rank: true
        }
      }
    }
  }
  attr {
    key: "dtypes"
    value {
      list {
        type: DT_FLOAT
      }
    }
  }
}
node {
  name: "save/Assign_12"
  op: "Assign"
  input: "dnn/logits/biases/part_0"
  input: "save/RestoreV2_12"
  attr {
    key: "T"
    value {
      type: DT_FLOAT
    }
  }
  attr {
    key: "_class"
    value {
      list {
        s: "loc:@dnn/logits/biases/part_0"
      }
    }
  }
  attr {
    key: "_output_shapes"
    value {
      list {
        shape {
          dim {
            size: 1
          }
        }
      }
    }
  }
  attr {
    key: "use_locking"
    value {
      b: true
    }
  }
  attr {
    key: "validate_shape"
    value {
      b: true
    }
  }
}
node {
  name: "save/RestoreV2_13/tensor_names"
  op: "Const"
  attr {
    key: "_output_shapes"
    value {
      list {
        shape {
          dim {
            size: 1
          }
        }
      }
    }
  }
  attr {
    key: "dtype"
    value {
      type: DT_STRING
    }
  }
  attr {
    key: "value"
    value {
      tensor {
        dtype: DT_STRING
        tensor_shape {
          dim {
            size: 1
          }
        }
        string_val: "dnn/logits/biases/ogits/biases/part_0/Adagrad"
      }
    }
  }
}
node {
  name: "save/RestoreV2_13/shape_and_slices"
  op: "Const"
  attr {
    key: "_output_shapes"
    value {
      list {
        shape {
          dim {
            size: 1
          }
        }
      }
    }
  }
  attr {
    key: "dtype"
    value {
      type: DT_STRING
    }
  }
  attr {
    key: "value"
    value {
      tensor {
        dtype: DT_STRING
        tensor_shape {
          dim {
            size: 1
          }
        }
        string_val: "1 0,1"
      }
    }
  }
}
node {
  name: "save/RestoreV2_13"
  op: "RestoreV2"
  input: "save/Const"
  input: "save/RestoreV2_13/tensor_names"
  input: "save/RestoreV2_13/shape_and_slices"
  attr {
    key: "_output_shapes"
    value {
      list {
        shape {
          unknown_rank: true
        }
      }
    }
  }
  attr {
    key: "dtypes"
    value {
      list {
        type: DT_FLOAT
      }
    }
  }
}
node {
  name: "save/Assign_13"
  op: "Assign"
  input: "regression_head/dnn/dnn/logits/biases/part_0/Adagrad"
  input: "save/RestoreV2_13"
  attr {
    key: "T"
    value {
      type: DT_FLOAT
    }
  }
  attr {
    key: "_class"
    value {
      list {
        s: "loc:@dnn/logits/biases/part_0"
      }
    }
  }
  attr {
    key: "_output_shapes"
    value {
      list {
        shape {
          dim {
            size: 1
          }
        }
      }
    }
  }
  attr {
    key: "use_locking"
    value {
      b: true
    }
  }
  attr {
    key: "validate_shape"
    value {
      b: true
    }
  }
}
node {
  name: "save/RestoreV2_14/tensor_names"
  op: "Const"
  attr {
    key: "_output_shapes"
    value {
      list {
        shape {
          dim {
            size: 1
          }
        }
      }
    }
  }
  attr {
    key: "dtype"
    value {
      type: DT_STRING
    }
  }
  attr {
    key: "value"
    value {
      tensor {
        dtype: DT_STRING
        tensor_shape {
          dim {
            size: 1
          }
        }
        string_val: "dnn/logits/weights"
      }
    }
  }
}
node {
  name: "save/RestoreV2_14/shape_and_slices"
  op: "Const"
  attr {
    key: "_output_shapes"
    value {
      list {
        shape {
          dim {
            size: 1
          }
        }
      }
    }
  }
  attr {
    key: "dtype"
    value {
      type: DT_STRING
    }
  }
  attr {
    key: "value"
    value {
      tensor {
        dtype: DT_STRING
        tensor_shape {
          dim {
            size: 1
          }
        }
        string_val: "32 1 0,32:0,1"
      }
    }
  }
}
node {
  name: "save/RestoreV2_14"
  op: "RestoreV2"
  input: "save/Const"
  input: "save/RestoreV2_14/tensor_names"
  input: "save/RestoreV2_14/shape_and_slices"
  attr {
    key: "_output_shapes"
    value {
      list {
        shape {
          unknown_rank: true
        }
      }
    }
  }
  attr {
    key: "dtypes"
    value {
      list {
        type: DT_FLOAT
      }
    }
  }
}
node {
  name: "save/Assign_14"
  op: "Assign"
  input: "dnn/logits/weights/part_0"
  input: "save/RestoreV2_14"
  attr {
    key: "T"
    value {
      type: DT_FLOAT
    }
  }
  attr {
    key: "_class"
    value {
      list {
        s: "loc:@dnn/logits/weights/part_0"
      }
    }
  }
  attr {
    key: "_output_shapes"
    value {
      list {
        shape {
          dim {
            size: 32
          }
          dim {
            size: 1
          }
        }
      }
    }
  }
  attr {
    key: "use_locking"
    value {
      b: true
    }
  }
  attr {
    key: "validate_shape"
    value {
      b: true
    }
  }
}
node {
  name: "save/RestoreV2_15/tensor_names"
  op: "Const"
  attr {
    key: "_output_shapes"
    value {
      list {
        shape {
          dim {
            size: 1
          }
        }
      }
    }
  }
  attr {
    key: "dtype"
    value {
      type: DT_STRING
    }
  }
  attr {
    key: "value"
    value {
      tensor {
        dtype: DT_STRING
        tensor_shape {
          dim {
            size: 1
          }
        }
        string_val: "dnn/logits/weights/gits/weights/part_0/Adagrad"
      }
    }
  }
}
node {
  name: "save/RestoreV2_15/shape_and_slices"
  op: "Const"
  attr {
    key: "_output_shapes"
    value {
      list {
        shape {
          dim {
            size: 1
          }
        }
      }
    }
  }
  attr {
    key: "dtype"
    value {
      type: DT_STRING
    }
  }
  attr {
    key: "value"
    value {
      tensor {
        dtype: DT_STRING
        tensor_shape {
          dim {
            size: 1
          }
        }
        string_val: "32 1 0,32:0,1"
      }
    }
  }
}
node {
  name: "save/RestoreV2_15"
  op: "RestoreV2"
  input: "save/Const"
  input: "save/RestoreV2_15/tensor_names"
  input: "save/RestoreV2_15/shape_and_slices"
  attr {
    key: "_output_shapes"
    value {
      list {
        shape {
          unknown_rank: true
        }
      }
    }
  }
  attr {
    key: "dtypes"
    value {
      list {
        type: DT_FLOAT
      }
    }
  }
}
node {
  name: "save/Assign_15"
  op: "Assign"
  input: "regression_head/dnn/dnn/logits/weights/part_0/Adagrad"
  input: "save/RestoreV2_15"
  attr {
    key: "T"
    value {
      type: DT_FLOAT
    }
  }
  attr {
    key: "_class"
    value {
      list {
        s: "loc:@dnn/logits/weights/part_0"
      }
    }
  }
  attr {
    key: "_output_shapes"
    value {
      list {
        shape {
          dim {
            size: 32
          }
          dim {
            size: 1
          }
        }
      }
    }
  }
  attr {
    key: "use_locking"
    value {
      b: true
    }
  }
  attr {
    key: "validate_shape"
    value {
      b: true
    }
  }
}
node {
  name: "save/RestoreV2_16/tensor_names"
  op: "Const"
  attr {
    key: "_output_shapes"
    value {
      list {
        shape {
          dim {
            size: 1
          }
        }
      }
    }
  }
  attr {
    key: "dtype"
    value {
      type: DT_STRING
    }
  }
  attr {
    key: "value"
    value {
      tensor {
        dtype: DT_STRING
        tensor_shape {
          dim {
            size: 1
          }
        }
        string_val: "global_step"
      }
    }
  }
}
node {
  name: "save/RestoreV2_16/shape_and_slices"
  op: "Const"
  attr {
    key: "_output_shapes"
    value {
      list {
        shape {
          dim {
            size: 1
          }
        }
      }
    }
  }
  attr {
    key: "dtype"
    value {
      type: DT_STRING
    }
  }
  attr {
    key: "value"
    value {
      tensor {
        dtype: DT_STRING
        tensor_shape {
          dim {
            size: 1
          }
        }
        string_val: ""
      }
    }
  }
}
node {
  name: "save/RestoreV2_16"
  op: "RestoreV2"
  input: "save/Const"
  input: "save/RestoreV2_16/tensor_names"
  input: "save/RestoreV2_16/shape_and_slices"
  attr {
    key: "_output_shapes"
    value {
      list {
        shape {
          unknown_rank: true
        }
      }
    }
  }
  attr {
    key: "dtypes"
    value {
      list {
        type: DT_INT64
      }
    }
  }
}
node {
  name: "save/Assign_16"
  op: "Assign"
  input: "global_step"
  input: "save/RestoreV2_16"
  attr {
    key: "T"
    value {
      type: DT_INT64
    }
  }
  attr {
    key: "_class"
    value {
      list {
        s: "loc:@global_step"
      }
    }
  }
  attr {
    key: "_output_shapes"
    value {
      list {
        shape {
        }
      }
    }
  }
  attr {
    key: "use_locking"
    value {
      b: true
    }
  }
  attr {
    key: "validate_shape"
    value {
      b: true
    }
  }
}
node {
  name: "save/RestoreV2_17/tensor_names"
  op: "Const"
  attr {
    key: "_output_shapes"
    value {
      list {
        shape {
          dim {
            size: 1
          }
        }
      }
    }
  }
  attr {
    key: "dtype"
    value {
      type: DT_STRING
    }
  }
  attr {
    key: "value"
    value {
      tensor {
        dtype: DT_STRING
        tensor_shape {
          dim {
            size: 1
          }
        }
        string_val: "linear/linear_model/alpha/weights"
      }
    }
  }
}
node {
  name: "save/RestoreV2_17/shape_and_slices"
  op: "Const"
  attr {
    key: "_output_shapes"
    value {
      list {
        shape {
          dim {
            size: 1
          }
        }
      }
    }
  }
  attr {
    key: "dtype"
    value {
      type: DT_STRING
    }
  }
  attr {
    key: "value"
    value {
      tensor {
        dtype: DT_STRING
        tensor_shape {
          dim {
            size: 1
          }
        }
        string_val: "2 1 0,2:0,1"
      }
    }
  }
}
node {
  name: "save/RestoreV2_17"
  op: "RestoreV2"
  input: "save/Const"
  input: "save/RestoreV2_17/tensor_names"
  input: "save/RestoreV2_17/shape_and_slices"
  attr {
    key: "_output_shapes"
    value {
      list {
        shape {
          unknown_rank: true
        }
      }
    }
  }
  attr {
    key: "dtypes"
    value {
      list {
        type: DT_FLOAT
      }
    }
  }
}
node {
  name: "save/Assign_17"
  op: "Assign"
  input: "linear/linear_model/alpha/weights/part_0"
  input: "save/RestoreV2_17"
  attr {
    key: "T"
    value {
      type: DT_FLOAT
    }
  }
  attr {
    key: "_class"
    value {
      list {
        s: "loc:@linear/linear_model/alpha/weights/part_0"
      }
    }
  }
  attr {
    key: "_output_shapes"
    value {
      list {
        shape {
          dim {
            size: 2
          }
          dim {
            size: 1
          }
        }
      }
    }
  }
  attr {
    key: "use_locking"
    value {
      b: true
    }
  }
  attr {
    key: "validate_shape"
    value {
      b: true
    }
  }
}
node {
  name: "save/RestoreV2_18/tensor_names"
  op: "Const"
  attr {
    key: "_output_shapes"
    value {
      list {
        shape {
          dim {
            size: 1
          }
        }
      }
    }
  }
  attr {
    key: "dtype"
    value {
      type: DT_STRING
    }
  }
  attr {
    key: "value"
    value {
      tensor {
        dtype: DT_STRING
        tensor_shape {
          dim {
            size: 1
          }
        }
        string_val: "linear/linear_model/alpha/weights/l/alpha/weights/part_0/Ftrl"
      }
    }
  }
}
node {
  name: "save/RestoreV2_18/shape_and_slices"
  op: "Const"
  attr {
    key: "_output_shapes"
    value {
      list {
        shape {
          dim {
            size: 1
          }
        }
      }
    }
  }
  attr {
    key: "dtype"
    value {
      type: DT_STRING
    }
  }
  attr {
    key: "value"
    value {
      tensor {
        dtype: DT_STRING
        tensor_shape {
          dim {
            size: 1
          }
        }
        string_val: "2 1 0,2:0,1"
      }
    }
  }
}
node {
  name: "save/RestoreV2_18"
  op: "RestoreV2"
  input: "save/Const"
  input: "save/RestoreV2_18/tensor_names"
  input: "save/RestoreV2_18/shape_and_slices"
  attr {
    key: "_output_shapes"
    value {
      list {
        shape {
          unknown_rank: true
        }
      }
    }
  }
  attr {
    key: "dtypes"
    value {
      list {
        type: DT_FLOAT
      }
    }
  }
}
node {
  name: "save/Assign_18"
  op: "Assign"
  input: "regression_head/linear/linear/linear_model/alpha/weights/part_0/Ftrl"
  input: "save/RestoreV2_18"
  attr {
    key: "T"
    value {
      type: DT_FLOAT
    }
  }
  attr {
    key: "_class"
    value {
      list {
        s: "loc:@linear/linear_model/alpha/weights/part_0"
      }
    }
  }
  attr {
    key: "_output_shapes"
    value {
      list {
        shape {
          dim {
            size: 2
          }
          dim {
            size: 1
          }
        }
      }
    }
  }
  attr {
    key: "use_locking"
    value {
      b: true
    }
  }
  attr {
    key: "validate_shape"
    value {
      b: true
    }
  }
}
node {
  name: "save/RestoreV2_19/tensor_names"
  op: "Const"
  attr {
    key: "_output_shapes"
    value {
      list {
        shape {
          dim {
            size: 1
          }
        }
      }
    }
  }
  attr {
    key: "dtype"
    value {
      type: DT_STRING
    }
  }
  attr {
    key: "value"
    value {
      tensor {
        dtype: DT_STRING
        tensor_shape {
          dim {
            size: 1
          }
        }
        string_val: "linear/linear_model/alpha/weights/l/alpha/weights/part_0/Ftrl_1"
      }
    }
  }
}
node {
  name: "save/RestoreV2_19/shape_and_slices"
  op: "Const"
  attr {
    key: "_output_shapes"
    value {
      list {
        shape {
          dim {
            size: 1
          }
        }
      }
    }
  }
  attr {
    key: "dtype"
    value {
      type: DT_STRING
    }
  }
  attr {
    key: "value"
    value {
      tensor {
        dtype: DT_STRING
        tensor_shape {
          dim {
            size: 1
          }
        }
        string_val: "2 1 0,2:0,1"
      }
    }
  }
}
node {
  name: "save/RestoreV2_19"
  op: "RestoreV2"
  input: "save/Const"
  input: "save/RestoreV2_19/tensor_names"
  input: "save/RestoreV2_19/shape_and_slices"
  attr {
    key: "_output_shapes"
    value {
      list {
        shape {
          unknown_rank: true
        }
      }
    }
  }
  attr {
    key: "dtypes"
    value {
      list {
        type: DT_FLOAT
      }
    }
  }
}
node {
  name: "save/Assign_19"
  op: "Assign"
  input: "regression_head/linear/linear/linear_model/alpha/weights/part_0/Ftrl_1"
  input: "save/RestoreV2_19"
  attr {
    key: "T"
    value {
      type: DT_FLOAT
    }
  }
  attr {
    key: "_class"
    value {
      list {
        s: "loc:@linear/linear_model/alpha/weights/part_0"
      }
    }
  }
  attr {
    key: "_output_shapes"
    value {
      list {
        shape {
          dim {
            size: 2
          }
          dim {
            size: 1
          }
        }
      }
    }
  }
  attr {
    key: "use_locking"
    value {
      b: true
    }
  }
  attr {
    key: "validate_shape"
    value {
      b: true
    }
  }
}
node {
  name: "save/RestoreV2_20/tensor_names"
  op: "Const"
  attr {
    key: "_output_shapes"
    value {
      list {
        shape {
          dim {
            size: 1
          }
        }
      }
    }
  }
  attr {
    key: "dtype"
    value {
      type: DT_STRING
    }
  }
  attr {
    key: "value"
    value {
      tensor {
        dtype: DT_STRING
        tensor_shape {
          dim {
            size: 1
          }
        }
        string_val: "linear/linear_model/beta/weights"
      }
    }
  }
}
node {
  name: "save/RestoreV2_20/shape_and_slices"
  op: "Const"
  attr {
    key: "_output_shapes"
    value {
      list {
        shape {
          dim {
            size: 1
          }
        }
      }
    }
  }
  attr {
    key: "dtype"
    value {
      type: DT_STRING
    }
  }
  attr {
    key: "value"
    value {
      tensor {
        dtype: DT_STRING
        tensor_shape {
          dim {
            size: 1
          }
        }
        string_val: "2 1 0,2:0,1"
      }
    }
  }
}
node {
  name: "save/RestoreV2_20"
  op: "RestoreV2"
  input: "save/Const"
  input: "save/RestoreV2_20/tensor_names"
  input: "save/RestoreV2_20/shape_and_slices"
  attr {
    key: "_output_shapes"
    value {
      list {
        shape {
          unknown_rank: true
        }
      }
    }
  }
  attr {
    key: "dtypes"
    value {
      list {
        type: DT_FLOAT
      }
    }
  }
}
node {
  name: "save/Assign_20"
  op: "Assign"
  input: "linear/linear_model/beta/weights/part_0"
  input: "save/RestoreV2_20"
  attr {
    key: "T"
    value {
      type: DT_FLOAT
    }
  }
  attr {
    key: "_class"
    value {
      list {
        s: "loc:@linear/linear_model/beta/weights/part_0"
      }
    }
  }
  attr {
    key: "_output_shapes"
    value {
      list {
        shape {
          dim {
            size: 2
          }
          dim {
            size: 1
          }
        }
      }
    }
  }
  attr {
    key: "use_locking"
    value {
      b: true
    }
  }
  attr {
    key: "validate_shape"
    value {
      b: true
    }
  }
}
node {
  name: "save/RestoreV2_21/tensor_names"
  op: "Const"
  attr {
    key: "_output_shapes"
    value {
      list {
        shape {
          dim {
            size: 1
          }
        }
      }
    }
  }
  attr {
    key: "dtype"
    value {
      type: DT_STRING
    }
  }
  attr {
    key: "value"
    value {
      tensor {
        dtype: DT_STRING
        tensor_shape {
          dim {
            size: 1
          }
        }
        string_val: "linear/linear_model/beta/weights/el/beta/weights/part_0/Ftrl"
      }
    }
  }
}
node {
  name: "save/RestoreV2_21/shape_and_slices"
  op: "Const"
  attr {
    key: "_output_shapes"
    value {
      list {
        shape {
          dim {
            size: 1
          }
        }
      }
    }
  }
  attr {
    key: "dtype"
    value {
      type: DT_STRING
    }
  }
  attr {
    key: "value"
    value {
      tensor {
        dtype: DT_STRING
        tensor_shape {
          dim {
            size: 1
          }
        }
        string_val: "2 1 0,2:0,1"
      }
    }
  }
}
node {
  name: "save/RestoreV2_21"
  op: "RestoreV2"
  input: "save/Const"
  input: "save/RestoreV2_21/tensor_names"
  input: "save/RestoreV2_21/shape_and_slices"
  attr {
    key: "_output_shapes"
    value {
      list {
        shape {
          unknown_rank: true
        }
      }
    }
  }
  attr {
    key: "dtypes"
    value {
      list {
        type: DT_FLOAT
      }
    }
  }
}
node {
  name: "save/Assign_21"
  op: "Assign"
  input: "regression_head/linear/linear/linear_model/beta/weights/part_0/Ftrl"
  input: "save/RestoreV2_21"
  attr {
    key: "T"
    value {
      type: DT_FLOAT
    }
  }
  attr {
    key: "_class"
    value {
      list {
        s: "loc:@linear/linear_model/beta/weights/part_0"
      }
    }
  }
  attr {
    key: "_output_shapes"
    value {
      list {
        shape {
          dim {
            size: 2
          }
          dim {
            size: 1
          }
        }
      }
    }
  }
  attr {
    key: "use_locking"
    value {
      b: true
    }
  }
  attr {
    key: "validate_shape"
    value {
      b: true
    }
  }
}
node {
  name: "save/RestoreV2_22/tensor_names"
  op: "Const"
  attr {
    key: "_output_shapes"
    value {
      list {
        shape {
          dim {
            size: 1
          }
        }
      }
    }
  }
  attr {
    key: "dtype"
    value {
      type: DT_STRING
    }
  }
  attr {
    key: "value"
    value {
      tensor {
        dtype: DT_STRING
        tensor_shape {
          dim {
            size: 1
          }
        }
        string_val: "linear/linear_model/beta/weights/el/beta/weights/part_0/Ftrl_1"
      }
    }
  }
}
node {
  name: "save/RestoreV2_22/shape_and_slices"
  op: "Const"
  attr {
    key: "_output_shapes"
    value {
      list {
        shape {
          dim {
            size: 1
          }
        }
      }
    }
  }
  attr {
    key: "dtype"
    value {
      type: DT_STRING
    }
  }
  attr {
    key: "value"
    value {
      tensor {
        dtype: DT_STRING
        tensor_shape {
          dim {
            size: 1
          }
        }
        string_val: "2 1 0,2:0,1"
      }
    }
  }
}
node {
  name: "save/RestoreV2_22"
  op: "RestoreV2"
  input: "save/Const"
  input: "save/RestoreV2_22/tensor_names"
  input: "save/RestoreV2_22/shape_and_slices"
  attr {
    key: "_output_shapes"
    value {
      list {
        shape {
          unknown_rank: true
        }
      }
    }
  }
  attr {
    key: "dtypes"
    value {
      list {
        type: DT_FLOAT
      }
    }
  }
}
node {
  name: "save/Assign_22"
  op: "Assign"
  input: "regression_head/linear/linear/linear_model/beta/weights/part_0/Ftrl_1"
  input: "save/RestoreV2_22"
  attr {
    key: "T"
    value {
      type: DT_FLOAT
    }
  }
  attr {
    key: "_class"
    value {
      list {
        s: "loc:@linear/linear_model/beta/weights/part_0"
      }
    }
  }
  attr {
    key: "_output_shapes"
    value {
      list {
        shape {
          dim {
            size: 2
          }
          dim {
            size: 1
          }
        }
      }
    }
  }
  attr {
    key: "use_locking"
    value {
      b: true
    }
  }
  attr {
    key: "validate_shape"
    value {
      b: true
    }
  }
}
node {
  name: "save/RestoreV2_23/tensor_names"
  op: "Const"
  attr {
    key: "_output_shapes"
    value {
      list {
        shape {
          dim {
            size: 1
          }
        }
      }
    }
  }
  attr {
    key: "dtype"
    value {
      type: DT_STRING
    }
  }
  attr {
    key: "value"
    value {
      tensor {
        dtype: DT_STRING
        tensor_shape {
          dim {
            size: 1
          }
        }
        string_val: "linear/linear_model/bias_weights"
      }
    }
  }
}
node {
  name: "save/RestoreV2_23/shape_and_slices"
  op: "Const"
  attr {
    key: "_output_shapes"
    value {
      list {
        shape {
          dim {
            size: 1
          }
        }
      }
    }
  }
  attr {
    key: "dtype"
    value {
      type: DT_STRING
    }
  }
  attr {
    key: "value"
    value {
      tensor {
        dtype: DT_STRING
        tensor_shape {
          dim {
            size: 1
          }
        }
        string_val: "1 0,1"
      }
    }
  }
}
node {
  name: "save/RestoreV2_23"
  op: "RestoreV2"
  input: "save/Const"
  input: "save/RestoreV2_23/tensor_names"
  input: "save/RestoreV2_23/shape_and_slices"
  attr {
    key: "_output_shapes"
    value {
      list {
        shape {
          unknown_rank: true
        }
      }
    }
  }
  attr {
    key: "dtypes"
    value {
      list {
        type: DT_FLOAT
      }
    }
  }
}
node {
  name: "save/Assign_23"
  op: "Assign"
  input: "linear/linear_model/bias_weights/part_0"
  input: "save/RestoreV2_23"
  attr {
    key: "T"
    value {
      type: DT_FLOAT
    }
  }
  attr {
    key: "_class"
    value {
      list {
        s: "loc:@linear/linear_model/bias_weights/part_0"
      }
    }
  }
  attr {
    key: "_output_shapes"
    value {
      list {
        shape {
          dim {
            size: 1
          }
        }
      }
    }
  }
  attr {
    key: "use_locking"
    value {
      b: true
    }
  }
  attr {
    key: "validate_shape"
    value {
      b: true
    }
  }
}
node {
  name: "save/RestoreV2_24/tensor_names"
  op: "Const"
  attr {
    key: "_output_shapes"
    value {
      list {
        shape {
          dim {
            size: 1
          }
        }
      }
    }
  }
  attr {
    key: "dtype"
    value {
      type: DT_STRING
    }
  }
  attr {
    key: "value"
    value {
      tensor {
        dtype: DT_STRING
        tensor_shape {
          dim {
            size: 1
          }
        }
        string_val: "linear/linear_model/bias_weights/el/bias_weights/part_0/Ftrl"
      }
    }
  }
}
node {
  name: "save/RestoreV2_24/shape_and_slices"
  op: "Const"
  attr {
    key: "_output_shapes"
    value {
      list {
        shape {
          dim {
            size: 1
          }
        }
      }
    }
  }
  attr {
    key: "dtype"
    value {
      type: DT_STRING
    }
  }
  attr {
    key: "value"
    value {
      tensor {
        dtype: DT_STRING
        tensor_shape {
          dim {
            size: 1
          }
        }
        string_val: "1 0,1"
      }
    }
  }
}
node {
  name: "save/RestoreV2_24"
  op: "RestoreV2"
  input: "save/Const"
  input: "save/RestoreV2_24/tensor_names"
  input: "save/RestoreV2_24/shape_and_slices"
  attr {
    key: "_output_shapes"
    value {
      list {
        shape {
          unknown_rank: true
        }
      }
    }
  }
  attr {
    key: "dtypes"
    value {
      list {
        type: DT_FLOAT
      }
    }
  }
}
node {
  name: "save/Assign_24"
  op: "Assign"
  input: "regression_head/linear/linear/linear_model/bias_weights/part_0/Ftrl"
  input: "save/RestoreV2_24"
  attr {
    key: "T"
    value {
      type: DT_FLOAT
    }
  }
  attr {
    key: "_class"
    value {
      list {
        s: "loc:@linear/linear_model/bias_weights/part_0"
      }
    }
  }
  attr {
    key: "_output_shapes"
    value {
      list {
        shape {
          dim {
            size: 1
          }
        }
      }
    }
  }
  attr {
    key: "use_locking"
    value {
      b: true
    }
  }
  attr {
    key: "validate_shape"
    value {
      b: true
    }
  }
}
node {
  name: "save/RestoreV2_25/tensor_names"
  op: "Const"
  attr {
    key: "_output_shapes"
    value {
      list {
        shape {
          dim {
            size: 1
          }
        }
      }
    }
  }
  attr {
    key: "dtype"
    value {
      type: DT_STRING
    }
  }
  attr {
    key: "value"
    value {
      tensor {
        dtype: DT_STRING
        tensor_shape {
          dim {
            size: 1
          }
        }
        string_val: "linear/linear_model/bias_weights/el/bias_weights/part_0/Ftrl_1"
      }
    }
  }
}
node {
  name: "save/RestoreV2_25/shape_and_slices"
  op: "Const"
  attr {
    key: "_output_shapes"
    value {
      list {
        shape {
          dim {
            size: 1
          }
        }
      }
    }
  }
  attr {
    key: "dtype"
    value {
      type: DT_STRING
    }
  }
  attr {
    key: "value"
    value {
      tensor {
        dtype: DT_STRING
        tensor_shape {
          dim {
            size: 1
          }
        }
        string_val: "1 0,1"
      }
    }
  }
}
node {
  name: "save/RestoreV2_25"
  op: "RestoreV2"
  input: "save/Const"
  input: "save/RestoreV2_25/tensor_names"
  input: "save/RestoreV2_25/shape_and_slices"
  attr {
    key: "_output_shapes"
    value {
      list {
        shape {
          unknown_rank: true
        }
      }
    }
  }
  attr {
    key: "dtypes"
    value {
      list {
        type: DT_FLOAT
      }
    }
  }
}
node {
  name: "save/Assign_25"
  op: "Assign"
  input: "regression_head/linear/linear/linear_model/bias_weights/part_0/Ftrl_1"
  input: "save/RestoreV2_25"
  attr {
    key: "T"
    value {
      type: DT_FLOAT
    }
  }
  attr {
    key: "_class"
    value {
      list {
        s: "loc:@linear/linear_model/bias_weights/part_0"
      }
    }
  }
  attr {
    key: "_output_shapes"
    value {
      list {
        shape {
          dim {
            size: 1
          }
        }
      }
    }
  }
  attr {
    key: "use_locking"
    value {
      b: true
    }
  }
  attr {
    key: "validate_shape"
    value {
      b: true
    }
  }
}
node {
  name: "save/RestoreV2_26/tensor_names"
  op: "Const"
  attr {
    key: "_output_shapes"
    value {
      list {
        shape {
          dim {
            size: 1
          }
        }
      }
    }
  }
  attr {
    key: "dtype"
    value {
      type: DT_STRING
    }
  }
  attr {
    key: "value"
    value {
      tensor {
        dtype: DT_STRING
        tensor_shape {
          dim {
            size: 1
          }
        }
        string_val: "regression_head/dnn/learning_rate"
      }
    }
  }
}
node {
  name: "save/RestoreV2_26/shape_and_slices"
  op: "Const"
  attr {
    key: "_output_shapes"
    value {
      list {
        shape {
          dim {
            size: 1
          }
        }
      }
    }
  }
  attr {
    key: "dtype"
    value {
      type: DT_STRING
    }
  }
  attr {
    key: "value"
    value {
      tensor {
        dtype: DT_STRING
        tensor_shape {
          dim {
            size: 1
          }
        }
        string_val: ""
      }
    }
  }
}
node {
  name: "save/RestoreV2_26"
  op: "RestoreV2"
  input: "save/Const"
  input: "save/RestoreV2_26/tensor_names"
  input: "save/RestoreV2_26/shape_and_slices"
  attr {
    key: "_output_shapes"
    value {
      list {
        shape {
          unknown_rank: true
        }
      }
    }
  }
  attr {
    key: "dtypes"
    value {
      list {
        type: DT_FLOAT
      }
    }
  }
}
node {
  name: "save/Assign_26"
  op: "Assign"
  input: "regression_head/dnn/learning_rate"
  input: "save/RestoreV2_26"
  attr {
    key: "T"
    value {
      type: DT_FLOAT
    }
  }
  attr {
    key: "_class"
    value {
      list {
        s: "loc:@regression_head/dnn/learning_rate"
      }
    }
  }
  attr {
    key: "_output_shapes"
    value {
      list {
        shape {
        }
      }
    }
  }
  attr {
    key: "use_locking"
    value {
      b: true
    }
  }
  attr {
    key: "validate_shape"
    value {
      b: true
    }
  }
}
node {
  name: "save/RestoreV2_27/tensor_names"
  op: "Const"
  attr {
    key: "_output_shapes"
    value {
      list {
        shape {
          dim {
            size: 1
          }
        }
      }
    }
  }
  attr {
    key: "dtype"
    value {
      type: DT_STRING
    }
  }
  attr {
    key: "value"
    value {
      tensor {
        dtype: DT_STRING
        tensor_shape {
          dim {
            size: 1
          }
        }
        string_val: "regression_head/linear/learning_rate"
      }
    }
  }
}
node {
  name: "save/RestoreV2_27/shape_and_slices"
  op: "Const"
  attr {
    key: "_output_shapes"
    value {
      list {
        shape {
          dim {
            size: 1
          }
        }
      }
    }
  }
  attr {
    key: "dtype"
    value {
      type: DT_STRING
    }
  }
  attr {
    key: "value"
    value {
      tensor {
        dtype: DT_STRING
        tensor_shape {
          dim {
            size: 1
          }
        }
        string_val: ""
      }
    }
  }
}
node {
  name: "save/RestoreV2_27"
  op: "RestoreV2"
  input: "save/Const"
  input: "save/RestoreV2_27/tensor_names"
  input: "save/RestoreV2_27/shape_and_slices"
  attr {
    key: "_output_shapes"
    value {
      list {
        shape {
          unknown_rank: true
        }
      }
    }
  }
  attr {
    key: "dtypes"
    value {
      list {
        type: DT_FLOAT
      }
    }
  }
}
node {
  name: "save/Assign_27"
  op: "Assign"
  input: "regression_head/linear/learning_rate"
  input: "save/RestoreV2_27"
  attr {
    key: "T"
    value {
      type: DT_FLOAT
    }
  }
  attr {
    key: "_class"
    value {
      list {
        s: "loc:@regression_head/linear/learning_rate"
      }
    }
  }
  attr {
    key: "_output_shapes"
    value {
      list {
        shape {
        }
      }
    }
  }
  attr {
    key: "use_locking"
    value {
      b: true
    }
  }
  attr {
    key: "validate_shape"
    value {
      b: true
    }
  }
}
node {
  name: "save/restore_shard"
  op: "NoOp"
  input: "^save/Assign"
  input: "^save/Assign_1"
  input: "^save/Assign_2"
  input: "^save/Assign_3"
  input: "^save/Assign_4"
  input: "^save/Assign_5"
  input: "^save/Assign_6"
  input: "^save/Assign_7"
  input: "^save/Assign_8"
  input: "^save/Assign_9"
  input: "^save/Assign_10"
  input: "^save/Assign_11"
  input: "^save/Assign_12"
  input: "^save/Assign_13"
  input: "^save/Assign_14"
  input: "^save/Assign_15"
  input: "^save/Assign_16"
  input: "^save/Assign_17"
  input: "^save/Assign_18"
  input: "^save/Assign_19"
  input: "^save/Assign_20"
  input: "^save/Assign_21"
  input: "^save/Assign_22"
  input: "^save/Assign_23"
  input: "^save/Assign_24"
  input: "^save/Assign_25"
  input: "^save/Assign_26"
  input: "^save/Assign_27"
}
node {
  name: "save/restore_all"
  op: "NoOp"
  input: "^save/restore_shard"
}
versions {
  producer: 22
}
